ppo_trained_model.pth (torch, 393915 bytes, 23 tensors)

conv1.weight f4 [32, 5, 8, 8]
00000000: 40fd e43d 35e4 eb3d 475a 163e 3e24 013e
00000010: f28c 863d 361e 403d 86c7 f9bc 0079 19bd
00000020: 263b cc3d 33f4 c83d ebde 963d 6179 273d
00000030: ed1a 913d 51ba f7bc b288 40bd 4987 a6bc
00000040: 00c8 35bd 8a6c 3bbc 635d 09bb 6017 283d
00000050: c2ed eabc 64c0 30bd b1ec cabb f2ee 69bd
00000060: b674 c2bc 85dd 893c 0201 173d 2d7f 843d
00000070: 5591 8e3c a07e bfbc 77df c3bb db22 a6bd
00000080: 0374 e43b 08a0 2fbd ce4f 883d fc6e 073d
00000090: 24fd 9b3c cd7a 2ebc 19fd c1bd 8437 d33b
000000a0: 3dc6 5dbc 6dc4 993c 8bfc 2f3b 1d1f 4d3c
000000b0: 7fd0 54bd 4b15 c6bd f148 88bd 762d a6bd
000000c0: 148f d1bb 7cc6 cf3c 710a 21bd 8e47 2bbd
000000d0: 72de e8bc 8fd3 9bbc d1af ecba 727d 98bc
000000e0: d94d 1b3d 4af8 833c d112 0fbd 8c53 cbbc
000000f0: 5e47 323c 80a9 e3bc 4344 99bd 5f3f 7e3c
00000100: 0cf5 533d 9566 8b3b a5c2 dabc 9807 613d
00000110: 7276 01bd 43fe 5e3d d74f 913c 9d80 0b3d
00000120: 525c 37bd 17e3 a2bc 4f40 a4bb f0f0 8bbc
00000130: dda5 febc 25e8 3e3d 7623 283d bef6 15bd
00000140: 7830 b8bb 34db 693d 8e08 7b3d 76bf 543a
00000150: 794e 30bc fdb8 203d 3009 a5bc dbb8 eebb
00000160: 3684 5b3d 33d5 17bd a1e2 993d bd06 253d
00000170: 92b5 25bd b969 45bd d7a1 883c cd38 203d
00000180: 0f45 943c a7bc 363d 31b6 43bd 2bca 2c3d
00000190: 8243 1d3b 918d 443d e359 ea3c 5c3e 0bbc
000001a0: d9fb 4cbd 6ba5 d8bb 884f dd3c 0b18 463d
000001b0: 8d80 233d 264d 0cbc abaf 8f3c fc94 68bc
000001c0: 8698 033d aaf7 0b3d 1430 55bb cda4 c13c
000001d0: 139d d1bc 5ee4 aebd e8b1 003d e8d9 063d
000001e0: 221b c2bc 266e 073d 9d66 b4bc 2e8f 1ebd
000001f0: c335 3dbc a34a 5f3d 5c18 8a3c 39d2 d03c
00000200: 450e e6bc a9b5 28bd b06e 34bd 6383 5b3d
00000210: f7cb 0dbd e560 f6bc 3966 27bd 1c3a 75bc
00000220: 4418 683c 43a8 2a3d 6344 463d f7ff d13c
00000230: 7500 6a3c d66b 66bc f885 33bd 9080 313c
00000240: bd0e cc3c 6eb9 513d defd 083d 4b2a e03c
00000250: 877d 373b 6b84 38bd 4bf9 653c 66bf ab3c
00000260: 5aa9 363c 70e9 46bd 95f7 e1bb 1a26 77bc
00000270: 3c09 5c3a d9de f3bb 7b57 443d 1c0d b0bc
00000280: 22fa 913c 7359 0dbd af5d 9cbc 2172 e83c
00000290: 4a29 02bd 5deb 583d 71db 19ba 883c 513d
000002a0: 904d 56bc 1c44 5d3d b99e 50bd 0814 35bd
000002b0: e0f1 6ebb 494a 37bd 21db 563d dd43 233d
000002c0: 1f2d 4b3d 80c3 7abc ba61 80bb 49e8 473d
000002d0: 5b1f 633c 4d99 51bd 8d76 cc3b d015 803c
000002e0: f266 293c 9ec2 06bd 0a2d 58bd ea4c 5d3d
000002f0: 527f 8c3b 4193 2dbd 8635 09bd 98cd 30ba
00000300: f0f8 f93c 79e2 a0bb 71e6 31b9 6e6d 023d
00000310: f0a6 313d a392 3e3d 135d 63bb 3336 40bd
00000320: 3806 c6bc b325 02bd 71eb 4d3d 3837 303b
00000330: 1355 1f3d 4416 23bd b917 3e3d 66f3 06bd
00000340: b406 9dbc 53cd ae3c 3ece d1bb 7736 0e3d
00000350: 21c9 f9bc 07db 39bd 06e0 233d b701 263d
00000360: 3c5a bd3c 31f7 d33c 30b4 58bd 4079 27bd
00000370: d129 b8bb a369 103d d9a8 39bd 2f83 103c
00000380: ddc1 453d 647f 10bd f78d 533d f149 1bbd
00000390: 3a7c 4abd cc28 d8bc b4c0 1f3d 5575 e33b
000003a0: 1271 c4bc 8dbe 5c3d 8ed4 933c 728a 423d
000003b0: 360b 0cbb 4616 353c 425c 563d afed 173d
000003c0: b7b3 843c 7929 a53b fe2b a7bc f4e6 ae3c
000003d0: 5db3 e6bc 5e5e 1cbc af4a 90bc 7fb9 623d
000003e0: a746 2fbd 61c8 913c 53f4 683c 75ed 293d
000003f0: ece9 0f3d 911a edbb 1c3c b1bb 2126 45bd
0.11181116 0.115181364 0.14682876 0.12611482 0.06569852 0.04690381 -0.030490648 -0.03746891
0.09972219 0.09812202 0.07366737 0.04088724 0.07085214 -0.03024021 -0.047005363 -0.02032818
-0.044380188 -0.011439452 -0.0020960204 0.041037917 -0.028677825 -0.043152228 -0.0061927666 -0.05711264
-0.023737293 0.016829262 0.036866195 0.06469569 0.017403284 -0.02337581 -0.005977567 -0.08112117
0.0069718375 -0.042877227 0.066558465 0.033064827 0.019041605 -0.010649395 -0.09472103 0.006445827
-0.013536033 0.01877042 0.0026853408 0.012519625 -0.05195665 -0.0967203 -0.066545375 -0.0811414
-0.00639523 0.0253632 -0.0393166 -0.041816287 -0.028426383 -0.019021777 -0.0018057768 -0.018614504
0.03791604 0.016109604 -0.034930054 -0.024820112 0.010881273 -0.027790785 -0.07483723 0.0155180385
0.051747367 0.004254172 -0.026704142 0.054938883 -0.0316071 0.0544417 0.017738266 0.034058202
-0.044765778 -0.019883676 -0.005012549 -0.017082661 -0.03108495 0.04660811 0.041049443 -0.036612265
-0.0056210123 0.057093814 0.061287455 0.0008115688 -0.010760897 0.03923892 -0.020145983 -0.00728522
0.053592883 -0.037068557 0.07513929 0.04028963 -0.040456362 -0.048196528 0.016678734 0.03911667
0.018099336 0.044613507 -0.047781173 0.04218499 0.0023996537 0.04798657 0.028607314 -0.008498754
-0.05004487 -0.0066115162 0.027015463 0.048362773 0.039917517 -0.0085633155 0.01753982 -0.014195677
0.03212788 0.034171738 -0.0032529877 0.023638153 -0.025587594 -0.08539651 0.031419665 0.032922655
-0.023694579 0.03306403 -0.022021586 -0.038710766 -0.011548462 0.05451454 0.016857319 0.025490867
-0.028082976 -0.04118887 -0.044050872 0.053592097 -0.034618344 -0.0300755 -0.04086897 -0.014967468
0.014165942 0.041664373 0.048405062 0.025634749 0.0142823355 -0.014063796 -0.043828934 0.010833874
0.024909372 0.05120223 0.03344523 0.027363917 0.0027998404 -0.04504816 0.014036487 0.02096529
0.011148775 -0.048562467 -0.006895969 -0.015084768 0.000839371 -0.007442337 0.04793499 -0.021490626
0.017819468 -0.034509134 -0.01908764 0.028374733 -0.031777658 0.052958835 -0.0005869186 0.051083118
-0.013080016 0.054020032 -0.05093262 -0.044208556 -0.0036460087 -0.04474858 0.05245507 0.03985964
0.049603578 -0.0153054 -0.0039179 0.04880551 0.013862456 -0.05117159 0.0062397183 0.015635401
0.0103394855 -0.032900445 -0.052777328 0.05402843 0.0042876387 -0.04237676 -0.03349831 -0.0006744503
0.03051421 -0.00490981 -0.00016965882 0.03184264 0.043372095 0.046526562 -0.0034692928 -0.04692669
-0.024172887 -0.031774234 0.050273363 0.0026888382 0.038899492 -0.039816156 0.046409342 -0.032946967
-0.019168235 0.02133814 -0.00640276 0.03471991 -0.030491414 -0.045374896 0.040008567 0.04052898
0.023114316 0.025874706 -0.052906215 -0.040887117 -0.0056202193 0.035256993 -0.04532704 0.008820339
0.048280586 -0.03527774 0.05164906 -0.037912313 -0.049434878 -0.026386641 0.039002135 0.0069414773
-0.023979697 0.05389266 0.01804569 0.047495313 -0.0021368987 0.011052674 0.052334078 0.037091907
0.016198976 0.0050403443 -0.02040672 0.021350361 -0.028161699 -0.009543983 -0.017613737 0.055352684
-0.04279199 0.017795743 0.014218408 0.041486222 0.035135195 -0.007235833 -0.005408777 -0.048132066

conv1.bias f4 [32]
00000000: 1aa8 3f3d 46cd d1bc 43cb 303c 1905 d33b
00000010: e9c6 4e3d 67e9 363d 960b 903c 6bb6 363c
00000020: 7b0d 26bd 03d7 bbbc 17dd 7cbc 845b 0bbd
00000030: b12f 39bd e67e 483d a429 1cbd 4f98 0abd
00000040: cb9d 9bbc 3906 3cbd 9eda f13c 9217 91bd
00000050: 800e bb3c 36aa 11bd 18a0 8e3c 8f2d fe38
00000060: 1d0d 9c3c 1153 113d bd87 5e3d 0f08 65bc
00000070: 6d8d ccb9 0ee8 85bc aaf9 94bc ded3 1f3c
0.046791174 -0.025610577 0.010790649 0.0064398167 0.050482664 0.044656184 0.01758365 0.01115189
-0.0405402 -0.022929674 -0.015433571 -0.034022823 -0.045211498 0.048949145 -0.03812565 -0.03383666
-0.01899614 -0.045904372 0.02952319 -0.07084574 0.022834063 -0.035562716 0.017410323 0.0001212015
0.019049222 0.03547961 0.05432867 -0.013978972 -0.00039015283 -0.016346004 -0.018185455 0.009755103

bn1.weight f4 [32]
00000000: 357b 8a3f cc9d 623f 7e28 8d3f 7036 9e3f
00000010: 2f13 a03f 5a45 843f 0da9 663f c22f 743f
00000020: 4bce 953f a9a8 993f a046 833f 21aa 733f
00000030: 839d 963f af9f 6c3f 2d80 6a3f a57c 993f
00000040: f6b8 493f 5a22 4f3f e9c4 893f a833 8a3f
00000050: 203f 9f3f 9521 7c3f f6ef 7e3f 279c 923f
00000060: e0cc 723f 9310 743f 6ffc 923f 543b 463f
00000070: 9cd1 603f f7ca 883f 3544 a93f d9af 5d3f
1.081885 0.8852203 1.1027982 1.2360363 1.2505854 1.0333664 0.901017 0.9538537
1.1703581 1.2004596 1.0255928 0.9518147 1.1766819 0.9243116 0.9160183 1.1991163
0.78797853 0.8091179 1.0763217 1.0797014 1.2441139 0.9848874 0.995849 1.1453904
0.94843864 0.9533779 1.1483287 0.7743428 0.8781984 1.068694 1.322394 0.8659645

bn1.bias f4 [32]
00000000: 1d6d f03d 1884 6abd 863c dd3d ec08 40bd
00000010: 80ac 563e f760 523c dd08 cbbd 3a29 35bc
00000020: b3e6 f83d f33c 0cbe 17bc ecbd 0a67 d13c
00000030: 2e3a e33d deef 36bd 7242 f8bc 6a14 5b3e
00000040: 9ade c2bd c932 47bd a1db 863d bd79 413d
00000050: 2fd5 3e3e 3f52 913c 1fbd 293d bc93 1e3e
00000060: 9e7e 093c a2af adbc aba1 67bb c910 53be
00000070: c095 7ebd aac7 733d f4a0 6d3d 95fa a8bd
0.11739562 -0.05725488 0.108025596 -0.04688351 0.20964241 0.012840501 -0.099138 -0.011057192
0.121533774 -0.13695125 -0.11559313 0.025561828 0.11095081 -0.04466235 -0.030305121 0.21394506
-0.09515114 -0.048632417 0.0658486 0.04723524 0.1863601 0.017739413 0.041440126 0.15486044
0.008392004 -0.021201912 -0.0035344164 -0.20611872 -0.06215453 0.059516586 0.058014825 -0.0825092

bn1.running_mean f4 [32]
00000000: 80e2 7e3d 2564 c53c ffcd caba 5955 3b3c
00000010: 7766 7c3d 15ed 013e b569 e13b 5094 ccbb
00000020: 8e55 4b3e 26aa d2bc f5ba 2cbd 466d 47bd
00000030: 712b ebbd 487a 003e 0fcd c53c cd3e 59be
00000040: 6c0c 443d 4b28 f53c d942 083e 4d23 a7bd
00000050: 6281 1bbd 2215 3d3d 77f5 b23c 7f23 73be
00000060: 37bb 863c b7bd 17bd eed5 633d f71f c53b
00000070: 3f5a 0bbc 0fe1 7dbe 3b2e 01bd f7f1 8c3d
0.062227726 0.024095604 -0.0015472769 0.011433923 0.061621156 0.12688096 0.0068790563 -0.006243266
0.19856855 -0.025715899 -0.042170484 -0.048688196 -0.11482895 0.12546647 0.024145631 -0.21215363
0.04786341 0.02992644 0.1330675 -0.0816103 -0.037965186 0.046162732 0.021845562 -0.2374401
0.016446693 -0.03704616 0.05562394 0.0060157734 -0.008505403 -0.24792884 -0.03153823 0.06882089

bn1.running_var f4 [32]
00000000: b7e1 333c 0fe7 7b3c 7da5 833b 1149 883b
00000010: 1ecf 183b 0fef 123d d5fb 1b3b ffb2 0a3c
00000020: 4a01 b83e ad3c b83a 7142 093c d755 2d3b
00000030: 6a2f c23c 4392 083d be11 d63c 4a11 253e
00000040: b600 ca3c 371f 073d ea7a a73d 88b7 313b
00000050: 44c4 813c fe13 493d 67c1 ad3b c167 993e
00000060: 94f0 af3b 5ec2 1a3d 9909 e63b 1e49 cf3b
00000070: 6a4b 0a3c de33 953e 013f fe3b 7a0b be3c
0.010979108 0.015374913 0.0040175305 0.004159101 0.002331681 0.035872515 0.0023801227 0.008465528
0.35938483 0.0014056169 0.008377657 0.002644887 0.02370425 0.03334261 0.026131507 0.16119877
0.024658542 0.032988753 0.08177741 0.002711745 0.015840657 0.04909133 0.0053025964 0.2996197
0.0053692553 0.03778302 0.007020187 0.006325855 0.008440832 0.29141134 0.0077589755 0.023198832

conv2.weight f4 [64, 32, 4, 4]
00000000: 910a 43bd e758 b3bc eed7 4ebb 513f 56bc
00000010: 3666 a3bc 776a 13bd 4ae1 e7bc 1809 b9bc
00000020: 0cec a5bc 89d5 403b bf8b 7b3c a763 6c3c
00000030: 6324 84bc 5b97 d9bc 4e8f dcbc ebe0 2d3d
00000040: 3893 3d3d ce41 1bbd f3f9 80bb fcc8 4e3d
00000050: 7a66 2e3c fa9f 30bd a14b 3a3c 967a 0d3b
00000060: 7a11 c43c 4bd9 8a3c d339 9ebc 3337 973c
00000070: f9ca 173c a121 60bc d1fe 67bc 14d5 b53c
00000080: 5b94 5cbd f962 23bd 8a0e d03d 02aa 093d
00000090: 2a98 3fbe 8055 08bd ba18 db3c 3662 f8ba
000000a0: 2840 e4bc f9a6 8c3c 5ce7 c33d 2b1e cf3c
000000b0: 7856 fabd 26cd 6bbd 4b73 9d3d ac56 013d
000000c0: db62 043c 4157 b93c cb11 513b 5a46 9abc
000000d0: c62a a43c 339a d33b ec2d 31bb 3281 e3bc
000000e0: 6a2c 3c3b 45d1 ef3c da39 a0bb 3b3b fdbd
000000f0: 3c20 e33d 9416 2c3d 2c7f a53c 1ac5 003d
00000100: 1666 01bd f810 ab3c fb58 8c3d bad2 dbbc
00000110: 1210 32bd 8e46 513c 9847 e93c 04bc 033e
00000120: 4f96 8f3c 01ab f43c 2af6 e43c be9f 01bd
00000130: 4c78 5bbc 7ebb 5cbc 4c25 743d d965 e33d
00000140: b124 3fbd d47c 043b bd58 7fbb 5b1b 4bbd
00000150: f814 44bd 147a 413d f331 4dbd 22ce 953b
00000160: 35e2 17bc a9a2 f3bc eee8 92bd e898 3fbb
00000170: d2aa ed3c ecf0 34bd dd88 babc 42fe 5c3d
00000180: 02c3 0cbd b3f1 493c 8e99 033d 086d 83bd
00000190: 81fc b93b 9abb 81bd 0e93 8cbc 413d 0f3c
000001a0: 42ce 753a 26a2 fc3c c7bc 993c df7e acbd
000001b0: ff80 8b3c 06c4 863c 9658 7bbd 18e0 2f3c
000001c0: 26c6 6bbd b205 47bc 015c febc 4993 6cbd
000001d0: 3dde 14bd 0ff3 d5bc 70fb cabc 80bc 38bd
000001e0: e04e 973c c31d 9cbc 530c b63c 3088 f7bc
000001f0: ea07 8b3c bf58 63bc 8e5e 25bd 2aa4 85bc
00000200: c9d3 163e eb46 583d 13f8 c33c aaa6 423d
00000210: 8e73 523d 976c 473b 8c07 8abc d589 913d
00000220: 0bbb de3b 191f 21bc 5b27 3c3d d4f1 cc3d
00000230: b5d0 773d e814 5e3d c53a 823d ef29 063e
00000240: e47c c4bb 3e2b eabc 3c75 0abd 25cc 7bbd
00000250: 05dc 8dbb a733 153c d34f 4c3d c542 21bd
00000260: 3ea9 15bd d9bd 893d 4ba4 2abd d954 c8bd
00000270: ceb7 8f3d c7ec 07bc d4ac 2dbd 52e0 4b3d
00000280: bbbc afbc 0df6 9fbc 04e0 613c cdfe 46bc
00000290: 901e ab3c 96f9 373b cdcf 7ebc 1d09 2abc
000002a0: cfde 33bc 890f 8cbc 3ab1 fb3c bd0d 9e3c
000002b0: edcd 0abd 83ef 863d 96c1 f83b 20fb fdbb
000002c0: 74ff 54bd df7e 96bd cc9e 29bd adfb d83c
000002d0: ced1 d23c 1454 72bd dc52 6dbd 484d 12bb
000002e0: 730d 423a b5df 8ebd d43a 72bd 35a5 54bd
000002f0: 92e1 53bd 19f3 03bd 9239 24bc a14c 2d3d
00000300: f561 aa3d 19b7 063d e7d6 27bc eab0 01bd
00000310: c6dd 03bd 67d4 1d3d 58ea 3b3d aa8e ad3c
00000320: 2861 043d 6fca 33bc 7128 53bd afd2 56bd
00000330: bab2 b03d 8a06 9d3d 8756 01bc dcc9 673c
00000340: 890a 04bd 7c8e fbbc b015 3ebb bac5 b0bc
00000350: 75c4 c7bc 1296 58bd 7856 9b38 026d b63c
00000360: ed79 40bd 6513 9abc eda0 9abb 42ba 5e3d
00000370: eb13 673b 87bb 0abb ebbd b2bc 5847 f7b9
00000380: 7169 b73c 378f 09bd 0903 18bd d798 5bbc
00000390: 9634 34bc a83c a03c dfa0 fcbb 4b86 993c
000003a0: 755e 39bd f818 bcbb 974e 6bbd 2335 2d3d
000003b0: 1445 293b 7d5e f4bc e11b 303c 9583 133d
000003c0: 895f 3e3d aa8a d23d 1835 56bd dd71 fbbb
000003d0: 2b20 50bc 7aa8 4f3d 3bd2 1ebd 9bdf acbc
000003e0: 9a0b 3f3c 0fea 86bc 3d4d 6abc b07c e6bb
000003f0: f527 d5bc 0008 923c 8dbe 3fbc 11cf 16bd
-0.0476175 -0.021892978 -0.003156181 -0.013076619 -0.019946199 -0.035990205 -0.028305668 -0.022587344
-0.020254157 0.0029424152 0.015353142 0.014428056 -0.016130632 -0.02656143 -0.026923802 0.042450827
0.046282977 -0.037904553 -0.0039360463 0.050484642 0.0106445495 -0.043121316 0.01137057 0.002158796
0.023934115 0.016949316 -0.019314682 0.018458938 0.009264701 -0.013679893 -0.014159874 0.02219633
-0.05385242 -0.03988931 0.10159023 0.033609398 -0.1871039 -0.033284664 0.026745189 -0.0018950168
-0.027862623 0.017169463 0.09565613 0.02528294 -0.12223524 -0.05756869 0.07688006 0.031576797
0.00808021 0.022624614 0.0031901475 -0.018832374 0.020039927 0.006457591 -0.0027035428 -0.027771566
0.0028712996 0.029274592 -0.004889709 -0.12364813 0.110901326 0.04201372 0.020202242 0.03143797
-0.031591497 0.020882115 0.06852909 -0.02683388 -0.043472357 0.012773169 0.028476521 0.12864691
0.017527727 0.029866697 0.027949411 -0.031646483 -0.01339538 -0.013472436 0.05960588 0.1110341
-0.04666585 0.0020216005 -0.0038962804 -0.049586635 -0.04787156 0.047235563 -0.050096463 0.004571692
-0.009270241 -0.029740648 -0.07173334 -0.0029235426 0.029012118 -0.044175074 -0.02277034 0.053953417
-0.03436566 0.012325692 0.032128863 -0.064172804 0.0056758528 -0.0633461 -0.017159965 0.008742631
0.0009376743 0.030839037 0.018766774 -0.08422636 0.017029284 0.016450893 -0.06136378 0.01073458
-0.057562016 -0.012147354 -0.03104973 -0.05775765 -0.036344755 -0.026116876 -0.024778098 -0.045101643
0.018470228 -0.01905716 0.022222674 -0.030216306 0.016971547 -0.013876139 -0.040373378 -0.016313631
0.14729227 0.052802008 0.023922002 0.047522224 0.051379733 0.0030429715 -0.016849302 0.071063675
0.0067971996 -0.009834074 0.04593597 0.100070626 0.060501773 0.054219157 0.06358866 0.13101934
-0.0059963334 -0.028585073 -0.03380321 -0.061473984 -0.004329207 0.009106553 0.049880814 -0.039370317
-0.036538355 0.06725664 -0.04166059 -0.097818084 0.0701748 -0.008296198 -0.04240115 0.049774475
-0.021452298 -0.019526506 0.01378632 -0.01214571 0.020888597 0.0028072349 -0.015552473 -0.010378149
-0.010978415 -0.017097251 0.030724157 0.01929366 -0.033887792 0.06588652 0.0075914366 -0.0077508837
-0.05200143 -0.073484175 -0.041411206 0.026487196 0.025734808 -0.059162214 -0.05794035 -0.0022323895
0.0007402517 -0.069762625 -0.059138134 -0.051915366 -0.051728792 -0.032214258 -0.010023491 0.042309407
0.08319465 0.03288946 -0.010244108 -0.03166286 -0.03219392 0.03853264 0.045877784 0.021186192
0.032319218 -0.010973557 -0.05155224 -0.052447017 0.086278394 0.07667263 -0.007894165 0.014147248
-0.03223661 -0.03070759 -0.0029004626 -0.021578658 -0.02438567 -0.052877493 7.407082e-05 0.022268776
-0.046991277 -0.018808076 -0.004718891 0.054376848 0.0035259675 -0.0021168904 -0.021819076 -0.00047164666
0.022389146 -0.033583846 -0.03711227 -0.013403139 -0.010998866 0.019560173 -0.007709607 0.018740794
-0.045256097 -0.005740281 -0.057447996 0.042287003 0.0025828527 -0.029830212 0.010748834 0.03601416
0.04647783 0.10280354 -0.052296728 -0.0076734857 -0.012702982 0.05069778 -0.03877471 -0.021102717
0.011660481 -0.01646903 -0.014300642 -0.007033907 -0.02602003 0.01782608 -0.011703146 -0.036818568

conv2.bias f4 [64]
00000000: 2d6c 0fbc 3ebd aebb 52c9 f0bc 81ed 843c
00000010: d3a2 8e3a 79fa 1fbc 509a c83a 840e 39bb
00000020: 694b 343d d5d4 0c3d 3f5d 2cbd 0e8c 32bd
00000030: 99ea 5ebc ddea 13bd f9a3 90bc c887 a5bc
00000040: 5936 08bc 3490 d7bc be34 183d 60ae 0dbd
00000050: e375 a93c c097 2fbd 56ac 723c 0c46 bf3c
00000060: 0ea6 93bc 679a 9bbb ff38 19bd fa7d 7bbb
00000070: 6eef 0bbc 2414 a3bc 8ea9 0bbd 9a5d 273d
00000080: ef83 ceba 78af 0cbc 29a7 123d 3d08 25bd
00000090: 8e28 efbc a940 22bd 920d 40bc 9c8e c03c
000000a0: dd7e 9e3c f671 153c 0224 c1bc 4274 2ebd
000000b0: 994a e53c e907 bb3c e5fa 203d 2b80 cfbb
000000c0: 4fb8 b23c 9fb3 a23a ffda f5bc ecf9 61bc
000000d0: cc8b bdbb 2cef 8e3b 369c f63b 5f6d 203d
000000e0: e436 d93c dff1 d83c b000 863c 14da 173c
000000f0: 17ce 253c dee5 163a 3ce6 f8bc f095 2ebd
-0.008753818 -0.005332618 -0.029392872 0.016226532 0.0010882266 -0.009764307 0.0015304778 -0.0028237412
0.04401723 0.03438266 -0.042081114 -0.043590598 -0.013605737 -0.036112655 -0.017656313 -0.020206347
-0.008313739 -0.026313879 0.037159674 -0.034590125 0.020686096 -0.04286933 0.014811596 0.02334883
-0.018023517 -0.004748631 -0.03740787 -0.0038374648 -0.008540971 -0.019907065 -0.034097247 0.04086075
-0.0015755872 -0.008586757 0.035803948 -0.04029106 -0.029194143 -0.039612446 -0.011721985 0.023505501
0.019347603 0.009121409 -0.02357674 -0.04259134 0.027989672 0.02283092 0.03930177 -0.0063324175
0.0218164 0.001241315 -0.030011652 -0.013792496 -0.0057844874 0.0043620076 0.007525946 0.039166804
0.026515432 0.02648252 0.01635775 0.0092683025 0.010119936 0.0005756299 -0.030383222 -0.04262346

bn2.weight f4 [64]
00000000: 870b 8e3f 22be 7d3f 55c6 503f dad7 8e3f
00000010: c224 883f cb43 8a3f f86a 6f3f c8f8 a73f
00000020: 37bf cf3f d0a6 a03f 939c 5c3f 0aa2 8a3f
00000030: b9f4 863f 674c 253f d4ab 9a3f c6a2 903f
00000040: c738 8e3f 8264 ab3f 24e4 a33f 9a96 823f
00000050: 6931 893f 1451 4e3f 093a 883f dc02 603f
00000060: 2c18 823f 00b5 593f 60ce 9c3f 3346 663f
00000070: aab1 4c3f 9bd1 8f3f 202f 923f 6364 3e3f
00000080: 7b1a 353f 2386 613f 584a 7f3f 7c6b 953f
00000090: f161 573f 855d a43f ab0f 593f e079 8d3f
000000a0: 94f8 613f d4b0 b13f 3856 603f 0b7f 533f
000000b0: 0fcd 8d3f 1fb1 933f 4469 893f fe77 3f3f
000000c0: a130 7e3f efb7 9a3f 8419 7b3f 518d 903f
000000d0: 5ebf 463f b490 513f e883 5a3f 3f63 763f
000000e0: 6b65 9d3f d02e 573f d160 763f 2b81 5e3f
000000f0: b4f1 843f 83dc 4c3f 38c5 963f 0e65 603f
1.1097268 0.99118245 0.8155263 1.1159623 1.0636218 1.0801939 0.93522596 1.3122797
1.6230229 1.2550907 0.86176413 1.08307 1.0543433 0.64569706 1.2083688 1.1299675
1.1111077 1.3390048 1.2803998 1.020221 1.0718204 0.80592465 1.0642711 0.87504363
1.0163627 0.8504181 1.2250481 0.89950866 0.79958594 1.1235842 1.1420631 0.7437193
0.7074353 0.880953 0.99722815 1.1673427 0.8413382 1.284104 0.8478953 1.1052818
0.88269925 1.3882089 0.8763156 0.8261573 1.1078204 1.1538428 1.073525 0.7479247
0.9929295 1.2087382 0.9808581 1.1293126 0.77635753 0.81861424 0.8535752 0.9624519
1.2296575 0.84055805 0.9624148 0.86915845 1.0386262 0.80023974 1.1778936 0.876542

bn2.bias f4 [64]
00000000: bee1 23bd 3e38 cdbc 780a f8bd bb57 89bd
00000010: c732 81bd df6c 92bd a636 84bc e157 aa3d
00000020: 2f13 f13d 519d 013e 9141 41be fb1e d9bd
00000030: d30e 3cbc 548c 4ebe a327 10bd e1f3 273e
00000040: e413 e53d 6eae 82bd d5f7 f9bd a543 35be
00000050: 1ea6 c4bb 851f f2bd f5a4 5e3e 6b67 bebd
00000060: 9bc0 143d 9388 1dbe 7de0 5d3e 8fe6 2ebe
00000070: 2f6f 29be 97c7 b33d cc45 dfbd e536 10be
00000080: a25e 5bbe 8543 d8bd 0ea4 0ebe 7365 df3d
00000090: 3728 51be db84 04be 3551 30be 3269 1a3c
000000a0: 7363 eebd 82ed 5a3e 0191 0bbe 9ff4 45be
000000b0: a6ed acbd fb00 403d 4e8f 6ebb 67d2 3fbe
000000c0: 2408 2abd 552a 7abb 8259 9b3d cd9b 2abc
000000d0: 2c01 bdbe 5612 38be 7abf d8bd 6a9e 87bb
000000e0: ba9f 653d c34a 53bd 3297 f8bd 303f f9bd
000000f0: 0621 0dbe 2439 38be 8812 003e 9156 d43c
-0.040010206 -0.025051232 -0.12111372 -0.067061864 -0.06308513 -0.07149672 -0.01613934 0.08317543
0.11771237 0.12657668 -0.18872668 -0.10601612 -0.011478144 -0.20170718 -0.03519405 0.16401626
0.111854345 -0.06380926 -0.12205473 -0.17701586 -0.006001248 -0.11822418 0.21742614 -0.09297069
0.036316495 -0.1538413 0.21667667 -0.17080139 -0.1654632 0.08778303 -0.109019846 -0.1408344
-0.21422818 -0.10559753 -0.1392977 0.10908022 -0.20425497 -0.12941305 -0.17218478 0.009424495
-0.11640062 0.21379665 -0.13629533 -0.19331597 -0.08443765 0.046875935 -0.0036401334 -0.18732606
-0.04151167 -0.0038172205 0.07585432 -0.010413122 -0.36914957 -0.17975745 -0.10583396 -0.0041387575
0.05606053 -0.05158497 -0.12138213 -0.12170255 -0.13782129 -0.17990547 0.12507069 0.025920184

bn2.running_mean f4 [64]
00000000: 2b0f 953d afce 78bf d27c b73c edb6 d5be
00000010: 7fbb a9bf 4b12 e1be 5b20 14bd 3a70 6b3f
00000020: 8e7b 0abf 0b82 803f 8567 acbe 4cc4 c5be
00000030: 9cf2 5abf 4944 7240 ac05 59bf 95d3 38be
00000040: dc70 c83f 7fd8 acbe b855 923e 6215 bc3e
00000050: ce7a 86bf cd88 b3bf 60e2 d7bf d4d0 47be
00000060: 92da 8240 3a32 343e e353 acbf d1f3 113f
00000070: 4d98 e03e a69a 8dbe be1f a6bf abbb 6c3f
00000080: 0adb b73f bb03 83bf c118 2dbe f9ad a2bf
00000090: 2ac2 d1be 7c1f 97be f56d 94be f819 15bf
000000a0: 6a5b 94bf eb94 3c3f 0cfd a43f 18cf ecbe
000000b0: f77f 1cbe 0cf5 0ebf 8879 82be dcea 49bf
000000c0: 99aa dcbe 165c 193f afc8 aebe 65aa 8abf
000000d0: 96bb 0ebf 728e 14bf 632b 8e3e 1898 cdbf
000000e0: 9284 09bf 00de 023f d067 83bf d2a5 e33e
000000f0: cb61 21bf 78e1 56bd bd08 a4bf 32a7 fbbf
0.07278284 -0.97190374 0.022398386 -0.41741124 -1.3260344 -0.4395927 -0.03616367 0.9196812
-0.5409478 1.0039686 -0.3367273 -0.38626325 -0.8552644 3.7854178 -0.8477428 -0.18049462
1.5659442 -0.33758923 0.28581023 0.36735064 -1.0506227 -1.4026123 -1.6865959 -0.19513255
4.089181 0.17597285 -1.34631 0.5701266 0.43866196 -0.2765705 -1.2978437 0.9247386
1.436372 -1.0235513 -0.16903974 -1.2709342 -0.40968448 -0.29516208 -0.2899014 -0.5824275
-1.1590397 0.7366473 1.2889724 -0.4625175 -0.1528319 -0.5584266 -0.25483346 -0.7887399
-0.43098906 0.59906137 -0.34137484 -1.083325 -0.55754983 -0.58029854 0.27767476 -1.606204
-0.5371791 0.51119995 -1.0266056 0.44462448 -0.63039845 -0.052461118 -1.2815167 -1.9660399

bn2.running_var f4 [64]
00000000: b107 9540 9177 3241 16bc 4141 8e77 a840
00000010: cb57 8541 6408 2740 9276 8b41 765f a441
00000020: 8f45 b540 ccbb 9841 dfe1 0241 5026 b73f
00000030: 8138 9741 08e4 1d42 6b24 9540 820f d340
00000040: cd60 ea40 6267 7640 e27e 4440 ae34 ca40
00000050: 6693 2d41 a44c 3b41 a1c6 0f42 1f4b 3a41
00000060: 8d68 8442 fac1 3341 57a3 1341 0dcf 5b40
00000070: 4efc 6541 e94a d141 0a1e a241 c837 1341
00000080: 8caf c741 f9f5 dd40 9aaf 3941 e9e8 2841
00000090: 167e e240 1616 7f40 f7ed 4a41 d78f 2b41
000000a0: 8de6 ff40 53d2 d141 2753 c241 a965 0541
000000b0: cff4 cf40 4479 a740 c906 ae40 4502 8141
000000c0: 3652 c040 37e1 7740 c654 0641 7ea8 d640
000000d0: 29c5 1b40 ca8b 2c41 4e38 0b41 acf5 4241
000000e0: d162 6341 0dc1 6f41 0738 8b40 5026 8a41
000000f0: ebcf ba40 7bf5 fe40 af93 0f42 f0d8 5941
4.657189 11.154191 12.108419 5.264594 16.667868 2.6098871 17.432896 20.546612
5.664741 19.091698 8.180144 1.4308567 18.90259 39.472687 4.6606956 6.595643
7.3243165 3.85006 3.0702443 6.3189306 10.848486 11.706211 35.943974 11.64334
66.2042 11.234858 9.227378 3.4345124 14.374098 26.161577 20.264668 9.201118
24.960716 6.936276 11.605371 10.556863 7.0778913 3.985723 12.683097 10.722617
7.9968934 26.227697 24.290602 8.337319 6.498634 5.233553 5.4383283 16.126108
6.0100355 3.873121 8.395697 6.708068 2.4339087 10.784128 8.701246 12.1849785
14.211625 14.984632 4.3505893 17.268707 5.8378806 7.967466 35.894222 13.615463

conv3.weight f4 [64, 64, 3, 3]
00000000: 43a0 863d 5b65 963d 37ab 923b fb22 fd3b
00000010: 4e3f a2bc d4f7 a53b 47e4 463d 8473 67bc
00000020: e5a6 1a3e c6e9 a23c f65d aabd f5a4 4e3e
00000030: bd57 a03c 0096 14bd bac6 cf3d 05bf e7bc
00000040: 456b babc 01cc 8e3d 8bd0 623a f4df b73c
00000050: c60d 8c3d 71cb 473c 36db 60bc 7855 5c3d
00000060: 05c6 f6bc 059b 4c3d 72e1 003e d32b 463d
00000070: ee68 04be 6626 7f3e 782e 6e3c 53f9 70bd
00000080: 1aec 9b3d ad65 85bc 1d83 993c 27c2 b03d
00000090: a02b 723d 6103 c73b 0206 6f3e f21d c63d
000000a0: 8587 68bc 4494 d03d c58b 993d 673c 50bd
000000b0: 8dc4 1e3e 3222 22bd af6a 58bd 3278 9abd
000000c0: df5d 1abd 789f b3bc cada d1bc 3423 503c
000000d0: 4112 33bb 58f6 98bd 58ff 6f3c 75ac 393c
000000e0: 2371 9fbd 4ada 9a3c af24 263c a031 8fbc
000000f0: 96e3 22bd 794c f93c 36b5 123d e5b2 0aba
00000100: 92fc 94bd 01e0 0abe 5fb9 fa3c 9c81 c43c
00000110: 46aa c13d 3a0e cd3c 8011 6b3d 7382 88bd
00000120: 4792 783d 2077 50be 20af 893e 0ec3 6cbc
00000130: 3864 22bd c048 893d bfc1 24bc 1d5e 1cbd
00000140: 6efe b43e 2cf1 50bc a340 363b 4ebf aebd
00000150: 04b9 d03d 4a79 b03c 00db 633c 5ecd 9f3c
00000160: 80be 4a3c 87cb cf3c ef49 fc3b d9fb c03c
00000170: 46f9 b7bc 8745 05bd 21be 01bc 868a b5bc
00000180: ba0c 1dbd 4c4b b33c e91e 67ba 6409 5b3c
00000190: 3c73 29bd 5ec9 c53d b1ca 453d 57fe 91bc
000001a0: 58ff bb3d 53b1 8bbc 45e1 a73c 7b8a e13c
000001b0: 8847 a3bc 3d84 76bd d201 cfbc 670a 04bd
000001c0: 8be2 443d b30d d8bb cf76 3abb 1e78 9a3b
000001d0: 6b18 03bd 3021 cfbc 51fa e73d e523 6e3c
000001e0: 32e8 203d 4a71 1a3e a5fe 30be 127e 213d
000001f0: ed77 873d 181f b93d 92f8 a83c df46 25bc
00000200: e13d 3e3e 1684 6f3c 93b6 16bc 674a 813d
00000210: ba20 0ebd d075 aabc 74a4 e03d e3a2 fe3c
00000220: ba9e 0e3d a5bb 753c d1c5 983d 80e8 823c
00000230: 30bb a2bc 3c2c 653d 68c7 343d fb37 b33c
00000240: b372 4f3d c906 30bd 1f8d 45bd 33ef 0f3d
00000250: 922c 833d 4ce6 a03c 6c01 a63d 288d f83c
00000260: 060e dabc 449b cdbd 69c9 debd 2ed4 273e
00000270: 40f9 21bd ff78 95bd a178 d93b a712 afbc
00000280: 4757 80bd 8e21 eb3d c48e cdbc f000 3ebc
00000290: 69a4 a33b 5ab2 edbc 9600 9dbc dda5 003b
000002a0: 461e 1f3d b8a8 0f3d a6e6 f03c c541 903c
000002b0: 9c77 66bc 0699 0f3e 1fee 7f3c 7ebd 0dbc
000002c0: 7ccc e03c e4f6 b63c f100 163c 2907 863d
000002d0: e17c 3f3a c1d9 30bc 4ee6 1b3e a077 1a3d
000002e0: d806 2bbc 84d4 7c3d 4bc4 223d 0ed7 853b
000002f0: bac3 5c3c 85a7 25bc 4f64 6fbd 4d35 563d
00000300: 8039 d83a c7b1 7bbd 8785 cb3c 1582 37bd
00000310: a3dc 2f3d 18a0 6a3d 9ea0 553d 56ae d53d
00000320: 8426 b4bd f3b5 aa3a 0765 643c 2f8f cebd
00000330: 8d3b 24bc 1efd 4cbb 504a 57bd c54b 70bd
00000340: 9aa5 a5bd 1257 653d cedf 92bc 6bb8 b0bc
00000350: 1060 7ebc 4622 52bd 6a86 bf3c 1aa0 89b9
00000360: 7e76 89bd d829 193d db02 1fbd 26d0 df3c
00000370: dae2 3e3c e522 e0bd d5b6 7a3c 8f17 e1bb
00000380: c65d 9cbd 83ec a5bd 91b2 82bd 081a cfbd
00000390: c595 8bbc ec87 a0bc d456 a73c 259f 23bd
000003a0: 0e8b 0b3c a9df ebbc 4137 b7bd 3e65 50bd
000003b0: d906 903d 4799 f0bc c72d 53bd 2f50 b8bc
000003c0: ff7a 0dbd ffde 69bc e169 5dbc dc43 b0bb
000003d0: 7144 8cbc 71a0 80bd 287d d6bb 12f3 85bd
000003e0: 5c42 1fbd 3447 c2bc cbe0 1cbd 31b5 0abc
000003f0: aa69 1cbc b0fe ccbd 9107 95bb 6f57 0e3c
0.06573536 0.07343551 0.004475977 0.0077251173 -0.019805577 0.005064944 0.048557546 -0.014126662
0.15102728 0.019886862 -0.08318703 0.20180114 0.019573087 -0.036275864 0.10145326 -0.028289327
-0.022756228 0.069725044 0.0008652291 0.022445656 0.068385646 0.0121945 -0.013724139 0.053792447
-0.03012372 0.049952526 0.12586 0.048381638 -0.12930652 0.24916992 0.014537446 -0.058831524
0.07613392 -0.016283834 0.018739277 0.086307816 0.059123635 0.006073401 0.23342136 0.0967368
-0.014192467 0.101845294 0.07497362 -0.050838854 0.15504666 -0.039583392 -0.052836116 -0.07542457
-0.03768718 -0.021926627 -0.025617022 0.012703706 -0.0027324113 -0.07468861 0.014648281 0.011332621
-0.07785251 0.018902916 0.010140582 -0.017479718 -0.039767824 0.030431973 0.035817347 -0.00052909396
-0.072747365 -0.13562013 0.03060597 0.023987584 0.09456305 0.025031198 0.057389736 -0.06665506
0.060686376 -0.20357943 0.26891422 -0.014450802 -0.039646357 0.06703329 -0.010055958 -0.03817569
0.35350364 -0.012752812 0.0027809523 -0.08532582 0.10191539 0.02154221 0.013907194 0.019507106
0.01237452 0.025365604 0.0076992433 0.02355759 -0.02245773 -0.03253701 -0.007918865 -0.02216078
-0.038342215 0.02188649 -0.00088165567 0.013368938 -0.04136966 0.09657548 0.048289005 -0.017821474
0.09179562 -0.017052328 0.02049316 0.027531853 -0.01993157 -0.060184706 -0.025269423 -0.032236483
0.04806761 -0.00659343 -0.0028452163 0.004714026 -0.03200571 -0.02528438 0.11327041 0.014534925
0.03928394 0.15082279 -0.17284639 0.03942687 0.06614671 0.09039134 0.02062634 -0.010087698
0.18578292 0.014618894 -0.0091988025 0.06313019 -0.03469918 -0.02080813 0.10968867 0.03108353
0.034819342 0.014998351 0.074596055 0.015980005 -0.019864649 0.05595039 0.04413548 0.02187728
0.050646495 -0.04297522 -0.048230287 0.035140228 0.064049855 0.019641064 0.0810574 0.030340746
-0.026618015 -0.1003938 -0.1087826 0.16389534 -0.039544344 -0.07298469 0.0066366945 -0.021371199
-0.06266647 0.114810094 -0.02509249 -0.011596903 0.0049939645 -0.029015709 -0.019165318 0.0019630112
0.03884723 0.035073012 0.029406857 0.017609486 -0.014066603 0.14023218 0.015620737 -0.0086511355
0.027441256 0.022334523 0.009155498 0.065443344 0.000730468 -0.010794104 0.15224573 0.03771174
-0.010438643 0.06172611 0.03973798 0.0040844744 0.013474399 -0.010110741 -0.05844527 0.052296925
0.0016496629 -0.06144884 0.024843944 -0.04480179 0.042935025 0.057281584 0.05215513 0.104336426
-0.08796409 0.0013024196 0.013940102 -0.10085904 -0.010023964 -0.00312788 -0.052561104 -0.05866601
-0.080882266 0.05599124 -0.017928984 -0.021572312 -0.015525833 -0.051302217 0.023379523 -0.0002624996
-0.06712054 0.03739342 -0.038821083 0.027320933 0.011650765 -0.109441556 0.01530238 -0.0068692635
-0.07635073 -0.08101752 -0.06381715 -0.10112387 -0.01703919 -0.019596063 0.020427145 -0.039946694
0.00851704 -0.028793173 -0.08946086 -0.050877802 0.07032556 -0.029369963 -0.05155733 -0.022499172
-0.034541126 -0.014274358 -0.013514013 -0.005379183 -0.01712248 -0.06280602 -0.0065456815 -0.065405026
-0.038881645 -0.023715593 -0.038300317 -0.008466051 -0.009546677 -0.10009515 -0.004548021 0.008687838

conv3.bias f4 [64]
00000000: 1ce1 823c cfab c13c ff39 283d a695 c43c
00000010: 416a 81bb 49c6 18bd e6ca e3bc df79 c83c
00000020: ab9e dd3c ffa8 23bc 177d 063c 8bc4 243d
00000030: 9a4b 5dbc c427 dc3c fbf9 22bd c89a a83c
00000040: 4716 dabc c1d8 883c 5bb0 6c3c cc8d ce3c
00000050: c5c4 6b3c 40dc 0abb 1492 1d3d 8117 8a3b
00000060: 287f 02bc ed08 6b3c 71eb 9f3c 8cbe d7bc
00000070: 475e e6bc 619b f3bc 6114 e73c 9b0c 8ebc
00000080: 2135 2c3c f294 6bbc d39e 24bd 34f4 18bd
00000090: eb8d a63c ca28 bd3c 9260 f03c 44b3 04ba
000000a0: d813 513c 12de ecbb 8b37 05bd b65c e7bc
000000b0: fffc 0a3d 0582 e13c 437b 913b 1a87 ef3b
000000c0: 6552 893c b668 16bd 681d e43c a986 3f3b
000000d0: 9431 91bc 3c31 3dbc 3d6c 7a3c e189 6abb
000000e0: 7d32 933c a05f f33c 7be8 03bd 7f15 443b
000000f0: 8409 4d3a 83ab ae3c 8864 9f3c 3dd3 c23c
0.015976481 0.023641495 0.041070934 0.02399714 -0.003949434 -0.037298474 -0.02780671 0.024472175
0.027053198 -0.009989022 0.008208535 0.0402265 -0.013506794 0.02687443 -0.03978918 0.020581618
-0.02662195 0.016704919 0.014446343 0.025214098 0.014390175 -0.0021188408 0.03846939 0.0042142277
-0.007964887 0.01434539 0.019521447 -0.026335977 -0.028121127 -0.029737176 0.02820796 -0.017339995
0.010510714 -0.014378773 -0.04019053 -0.037342265 0.020331344 0.023090739 0.029342923 -0.0005062113
0.012761079 -0.0072286213 -0.032523673 -0.02824245 0.033932682 0.027527818 0.004439743 0.0073098065
0.016762922 -0.036720954 0.027846053 0.002922455 -0.017723836 -0.011547383 0.015284595 -0.0035787749
0.01796841 0.029708683 -0.032204133 0.002992004 0.00078215473 0.021322018 0.019457117 0.023782367

bn3.weight f4 [64]
00000000: ad0b 1f40 4a6a c33f c8d1 f63f 3518 0840
00000010: db07 f43f 8bed 2540 dc3e c53f 64db e43f
00000020: b37c c23f 443a d33f 8d09 d03f 46b2 1040
00000030: d509 d33f cdf7 ed3f eedc b73f bef5 1e40
00000040: b2c5 0140 95e4 ef3f ff69 0e40 89dd ed3f
00000050: 1d11 b93f 5dd0 f33f 7934 d83f c112 0840
00000060: 645d 0140 9b1e c33f 9cbe 0d40 98d9 e43f
00000070: 7fe9 cb3f 02f8 d63f aec8 cf3f 2394 c73f
00000080: 627a e63f 0efa f63f 0445 c53f f5f9 d73f
00000090: 1fba f93f 420c d13f 6d6a 0740 384d e23f
000000a0: ca50 ab3f bef1 1e40 ff63 0240 476c 1140
000000b0: 85a7 f33f 4fe7 d73f dcc6 e93f 4e45 e13f
000000c0: a04e d33f 334e f63f 2e07 c63f f68d c43f
000000d0: d3e2 e33f 3896 f03f 839f e13f c65e 0940
000000e0: 5d51 c13f ac38 f83f e732 ed3f f5f4 dc3f
000000f0: 9a9e f53f b25e b03f a982 b43f 5aee fe3f
2.4850876 1.5266812 1.928277 2.1264775 1.9064897 2.5926235 1.5409808 1.7879453
1.5194305 1.6502156 1.6252915 2.260881 1.6487375 1.8591248 1.4364297 2.483749
2.0276914 1.8741633 2.2252195 1.8583232 1.4458348 1.9047962 1.6891013 2.1261446
2.021325 1.5243715 2.2147589 1.7878904 1.5930632 1.6794436 1.6233118 1.5592083
1.8006098 1.9295061 1.5411687 1.6873156 1.9509925 1.6331866 2.1158707 1.7679815
1.338403 2.4835048 2.0373533 2.2722337 1.9035498 1.6867465 1.8263812 1.7599275
1.650837 1.9242615 1.5470941 1.5355823 1.7803596 1.8795843 1.7626804 2.1464095
1.5102955 1.9392295 1.8531159 1.7262255 1.9189026 1.3778899 1.4102374 1.9916489

bn3.bias f4 [64]
00000000: 63de 9a3f c6f6 a73e 7575 e83e 7d54 5b3f
00000010: 7ffd 3e3f fcd3 513f c460 023f 4e1b c23e
00000020: 8026 f23e 8075 9a3e 102a 033f 9ddd 713f
00000030: 9e39 fc3e 0c06 073f 0d5c d73e 85e8 613f
00000040: 7a09 103f 898a 333f 951f 533f aba7 263f
00000050: 7db6 a43e 8d0c 3a3f ae14 ff3e cdfa 143f
00000060: 5e39 ef3e af2c dc3e 2568 3a3f 3cf4 053f
00000070: 5d99 a03e c7c2 d23e 159c 0f3f 1975 fc3e
00000080: ba0c ff3e d684 183f 5558 db3e b232 063f
00000090: 1d66 133f 0e0d a93e 7e87 543f b867 0f3f
000000a0: 5e13 3c3e 8208 7b3f 7340 593f 2d38 503f
000000b0: 19c1 2d3f 381f f23e f266 0b3f 0895 1c3f
000000c0: 54bd 0c3f 036b 053f d915 e83e 552a c53e
000000d0: 7ff9 ff3e 444d c53e 9559 183f 4f99 413f
000000e0: 6b12 b53e 9193 173f b271 bb3e 8505 bd3e
000000f0: a0fd e43e 2923 a13e 8a10 863e 158a 133f
1.2099117 0.3280546 0.45402113 0.85675794 0.74605554 0.8196409 0.509289 0.37911457
0.47294998 0.3016777 0.5123606 0.9447878 0.49262708 0.527436 0.42062417 0.8824542
0.5626446 0.7013326 0.82470065 0.6509959 0.32170478 0.726754 0.49820465 0.5819519
0.46723455 0.4300284 0.7281516 0.523258 0.31367007 0.41164228 0.5609754 0.49308088
0.49814397 0.5957769 0.4284083 0.52421105 0.5757769 0.33017772 0.83019245 0.5601764
0.18366763 0.98059857 0.84863967 0.8133572 0.6787277 0.47289443 0.5445396 0.61164904
0.5497639 0.5211641 0.45329168 0.3850886 0.49995038 0.38535511 0.5951169 0.75624555
0.35365614 0.59209543 0.3661018 0.36918274 0.4472475 0.31472138 0.26184493 0.5763257

bn3.running_mean f4 [64]
00000000: 89bf de3e daee 893f 3ee1 0840 596f 18c0
00000010: 396c 83bf 38fe a2be f09d bdbf 3e7a f2bf
00000020: 7e03 76c0 f0d5 f23e 6a43 c2bf 1c33 52bf
00000030: a383 93be 867e 2d3f bd08 1bc0 6058 743e
00000040: 167a b53f 29aa 203e 4857 8b3d 0cb0 5c3f
00000050: 71ba 0540 2007 d4ba c6e2 0bbf b1ec 47bf
00000060: ee83 e03f 607a b1bf b8e9 483f e5ba b8be
00000070: aca0 0a40 e61d ae3f e729 aebf 2f20 a93f
00000080: 3146 8abe 7c32 18be a37b 2540 c283 37bf
00000090: b9b9 ad3f ca31 9a3f ce32 a43d ba15 953f
000000a0: 31be 193f 4bb6 cb3e 4975 31c0 1e64 b73f
000000b0: cd21 08c0 b9e3 9d3e e533 e4be daf2 a8bf
000000c0: 4aa9 b7be 5059 b73f befc 53bf 3813 38bd
000000d0: af1d 9ebe 32c6 b73f 6901 f5be d28d 71be
000000e0: 6e61 0dbf c025 793f b35e dc3f 8da8 db3f
000000f0: 491b a53f 669a 883e c0fb ae3e 6a7f 1a40
0.43505505 1.0776017 2.1387477 -2.3817961 -1.0267402 -0.3183458 -1.4813824 -1.8943555
-3.8439631 0.47428846 -1.5176823 -0.82109237 -0.28811368 0.67771184 -2.4224083 0.23861837
1.4177883 0.15689911 0.06803757 0.86206126 2.0895045 -0.001617644 -0.54642904 -0.7809554
1.7540262 -1.3865471 0.78481627 -0.3608009 2.1660566 1.3602874 -1.3606538 1.3212947
-0.27006677 -0.14863008 2.5856712 -0.7168542 1.3572303 1.2046444 0.08017503 1.1647255
0.60055834 0.39787516 -2.7727835 1.4327428 -2.127063 0.308378 -0.44570842 -1.3199112
-0.35871345 1.4324131 -0.8280753 -0.044940203 -0.30882022 1.435736 -0.47852638 -0.23589256
-0.5522679 0.97323227 1.72164 1.7160813 1.2898952 0.26680297 0.34176445 2.4140267

bn3.running_var f4 [64]
00000000: 4f61 8b41 7a57 2f41 8a72 f941 f1e1 0441
00000010: c4f1 1d41 0ce9 0241 bbbd 6f42 d647 be41
00000020: 4753 2842 05a4 ed40 04cf ce41 cdb7 3041
00000030: f953 3c41 d06d 6f41 427e d540 7fec d841
00000040: 63de c341 6006 3441 3965 bb41 d2f8 4241
00000050: 6681 3342 b787 8941 18be 7841 ad82 4941
00000060: 66bf c041 dcca d441 524f 9641 9077 a641
00000070: b045 8b41 fd5c d141 997a 6f41 368c 2841
00000080: 36c4 8441 e1ad 6541 a721 8341 9356 6241
00000090: 4461 c741 2b73 5141 f59c 3c41 5d68 5741
000000a0: dd52 bc41 0af7 6641 7109 2941 613a af41
000000b0: 5aaf 6841 232d b141 71a2 0941 5712 2e41
000000c0: 7401 0541 02a2 e441 4f6a 9441 0d54 e140
000000d0: 8c17 4841 026a 0742 a395 9d41 4b61 4041
000000e0: 5fb7 e740 9a43 3841 ef92 c141 0ead ab41
000000f0: 9244 a341 9d83 4a41 dc28 2c41 c6c7 c241
17.422514 10.958857 31.180927 8.305161 9.871525 8.181896 59.935284 23.785076
42.081326 7.426272 25.851082 11.044873 11.770501 14.96431 6.6716623 27.115477
24.483587 11.251556 23.424425 12.185747 44.876366 17.191267 15.54641 12.594403
24.093456 26.599052 18.78873 20.80838 17.409027 26.170404 14.967431 10.534231
16.595806 14.354951 16.391432 14.146136 24.922493 13.090617 11.78832 13.462979
23.54046 14.435312 10.564805 21.903505 14.54281 22.14704 8.602159 10.8794775
8.312855 28.579105 18.551908 7.04151 12.505749 33.853523 19.698065 12.023753
7.241134 11.516504 24.196745 21.4595 20.408482 12.657132 10.759975 24.347546

fc_mu.weight f4 [2, 3136]
00000000: 2719 06bc 077b 5d3b 2bb7 0cbd 8862 f5bc
00000010: 8495 093d 619e 363b aa31 d73b e898 4abc
00000020: fe49 e93c 787d d5bc e6f7 ecbc c0b8 70bb
00000030: f701 21bc 9cc4 a93b 7f72 66bc 4307 783c
00000040: 8891 f3bc ca12 0b3d 1870 49bc 81cc 6e3c
00000050: 6eee 8dbc d165 dabb 51aa 78bc 4c54 00bd
00000060: efd4 1abc b301 c7bc 30da fe3c aba0 843c
00000070: 7dcf 683b 69dc 9b3b 9aa9 34bb 2490 d2bc
00000080: ef93 0abc 00e7 8e3b f7cf 833c 457a 9fbb
00000090: 56ec 00bd b55c d1bc e075 39bc 1ec2 31bc
000000a0: 6eac 793a d39e 3abb 338a bbbb c12a 45bc
000000b0: 9aa8 4a3c 4e41 8f3b 13ba 8c3a 8c2c 05bc
000000c0: 05fb 57bc 2139 c73b 4005 033c 704d 11bb
000000d0: 9dda ffbc 1ead 9dbc 0731 84bc 6af1 753c
000000e0: 675a 8bbc ce97 e7bb 16a0 d7bc 3830 91bc
000000f0: c30d d3ba 2945 50bc 07b1 1d3c 0c52 18bc
00000100: c080 013b 3d8a 3abb 1c86 d7bb b2a5 f83b
00000110: 2956 dbbc 03ac 7a3c 950b 8cbc 3dc6 923c
00000120: 82cb b4bb 7855 953c 38f0 debc af99 4dbc
00000130: ea04 6d3c 3534 70bc 6b3c 02bd 8457 2cbc
00000140: 9e6d ee3c a3bc 313b 05a8 ce3c c414 86bc
00000150: 1804 61bc 4b53 d23c 5828 8bbb 636e f1bc
00000160: 4e47 813c 3ad9 90bc 0078 8eba cec6 833b
00000170: e839 70bc 254d 1cba c3c1 3ebc 4a49 21bb
00000180: dcb2 71bc 1afd 083c 5ffd 03bd e9d0 01bc
00000190: ce89 063d 716f 503c 56b9 bb3c 03a3 783c
000001a0: faf7 893c fd39 81b9 2743 d7bc 1991 0f3d
000001b0: 821c b23c 8777 893c 0565 4f3c c354 3ebc
000001c0: 4c38 aabb c4c0 bdbb 5de8 933b a99f 9d3b
000001d0: 1e38 d43c 2ee6 4ebb d373 2ebc 9c39 fcbb
000001e0: 0fe9 abbc 1b0f a9bc d1b1 2c3d 8c2d 16bc
000001f0: 0ac7 003c 740d 83bc af42 14bb 8028 98bc
00000200: 8873 e8bc e857 323c 5e5e 1fbc fca8 5abc
00000210: 6e47 37bb 8520 0c3c c56e f2bc c0ea 2dbc
00000220: 00b6 05bd 6979 f5bc a300 8abc 5c48 ec3a
00000230: cea8 883b b8c4 83bb 8a5b 163c 7e71 83bc
00000240: f82e f23b 482e 78bc 6594 2fbc 8862 413c
00000250: d574 b93c cacb b43b 1c48 e7bc 2f20 083c
00000260: f0e2 df3c f76e 02bc 77f0 453c 30bb 0a3d
00000270: e306 8dbc b97b 44bc 36e0 e73c 60c0 9a3c
00000280: 2592 cfbb b792 abba f4d5 8fbc 6fd9 f6bc
00000290: 0f3a f8bc 59f1 013d 2654 9c3c a3e2 7dbc
000002a0: d7b5 0abc 40b1 e33c c3be 043c bd5f 6f3c
000002b0: d6af 07bd 303c d63c 63e4 67bc cbad c1bc
000002c0: 92ad 5e3c c789 263c 10f6 173d bc75 ecbb
000002d0: c24f 803c 277e 87bc c553 8f3c 034d 91bb
000002e0: 798d a7bc 68e4 f33b de78 9b3c ccbd a03b
000002f0: be9d 72bc dc81 c73b 90cd dbbb 7453 cbbc
00000300: 4f69 82bc 2a4d 7f3c dcb3 8c3b d049 20bc
00000310: 7609 a9bc 2b32 f4ba 7af6 c63c 7eb4 eb3c
00000320: ca13 05bd aabc 6b3c 4f6a f23b 91f7 c1bc
00000330: 4077 94bc 9fde 093c 4aa6 1b3d 1000 03bd
00000340: 4371 a53b 2b8e 0b3d 1405 1a3d b2d2 a4bc
00000350: 8837 123d 1a65 203d 3317 f5bb 7205 1c3d
00000360: 40c8 eb3c 638f af3c 05aa d03c d8ad 7e3c
00000370: 8473 2e3c 4b77 d13c de74 df3c 922c c03c
00000380: 1438 c9bc 9e80 313c 4764 0d3c 272b d5bc
00000390: 9fb2 f2bc 64f2 91bc 8b97 223c 136e e63c
000003a0: ad86 09bc b1fd f83a 62e6 a83c 3980 84bc
000003b0: 0aa8 903c 908b b93c 6ed4 053d d14b 063d
000003c0: ecf4 abbc 2b0a f4bb 8db6 4e3c 94f9 e03c
000003d0: 175e 213c 8b28 87bc 8bfc f6bc 0607 8c3a
000003e0: e11a 723c 1083 9b3c ef48 973c e945 b4bc
000003f0: 83fa 71bc da3b 11bd 16eb aebc 895e af3c
-0.008184708 0.0033795254 -0.03435437 -0.02995421 0.033589855 0.0027865397 0.0065671997 -0.012365557
0.028477665 -0.026060805 -0.028926801 -0.0036731213 -0.009827129 0.0051809084 -0.014065384 0.01513845
-0.02973248 0.033953466 -0.012294792 0.014575125 -0.017325606 -0.0066649695 -0.015177325 -0.03133039
-0.009450181 -0.024292802 0.0311099 0.016189894 0.0035524063 0.0047564995 -0.002756691 -0.025703497
-0.008458122 0.0043610334 0.016090376 -0.0048668706 -0.031475388 -0.025556901 -0.0113196075 -0.010849504
0.000952429 -0.0028476014 -0.0057232617 -0.012034119 0.012369299 0.0043717986 0.0010736607 -0.008128297
-0.013182406 0.0060798083 0.007996857 -0.00221714 -0.031232173 -0.019247588 -0.01613666 0.015011171
-0.01701088 -0.007067657 -0.026321452 -0.017723188 -0.0016102124 -0.012711802 0.009624726 -0.009296905
0.001976058 -0.0028463744 -0.0065772664 0.007588112 -0.026774483 0.0152998 -0.017095366 0.017916793
-0.005517424 0.018229231 -0.027214155 -0.012548848 0.014466504 -0.014660885 -0.0317959 -0.010518912
0.029105004 0.0027120493 0.025226602 -0.016367324 -0.013733886 0.025674483 -0.0042467527 -0.029471582
0.015781071 -0.017681707 -0.0010869503 0.004021502 -0.014662243 -0.0005962423 -0.011642876 -0.0024610334
-0.014752116 0.008361125 -0.032224055 -0.007923343 0.032846265 0.012721882 0.022915523 0.015175584
0.016841877 -0.00024648002 -0.026277138 0.035050485 0.02174211 0.016780628 0.012658362 -0.011616888
-0.0051946994 -0.0057908017 0.004513784 0.0048102927 0.025905665 -0.0031570303 -0.010647732 -0.0076972973
-0.020985154 -0.020637086 0.042161766 -0.009166133 0.007859955 -0.015997626 -0.0022622754 -0.018574
-0.028375402 0.010885216 -0.009727089 -0.013345953 -0.002796616 0.008552675 -0.029593835 -0.010615051
-0.03264427 -0.02996512 -0.016846007 0.0018026936 0.0041705137 -0.0040212534 0.009177098 -0.016045328
0.007390853 -0.015147753 -0.010716532 0.011803277 0.022638718 0.0055174576 -0.028232627 0.008308454
0.027329892 -0.007961026 0.012081257 0.033869922 -0.017215198 -0.011992388 0.028305154 0.01889056
-0.0063345605 -0.0013089989 -0.017558075 -0.030132977 -0.030301122 0.031724308 0.019083094 -0.015495929
-0.008466206 0.02779448 0.008102122 0.014610228 -0.033126675 0.026151747 -0.014153573 -0.023642441
0.013591187 0.010164685 0.037099898 -0.0072161835 0.015663031 -0.016539646 0.017496 -0.0044342293
-0.020453202 0.0074429996 0.018978532 0.004905438 -0.0148081165 0.0060884785 -0.0067078546 -0.024820067
-0.015919356 0.015582362 0.004293902 -0.009783223 -0.020634394 -0.0018630674 0.024287451 0.028772589
-0.032489575 0.014388243 0.007397927 -0.02367762 -0.01812327 0.008414893 0.038000382 -0.03198248
0.0050489022 0.03407113 0.0376025 -0.020119999 0.03569749 0.039158918 -0.007479572 0.03809113
0.02878201 0.021430677 0.025471697 0.015544377 0.010647658 0.025569579 0.027277406 0.023458753
-0.024562873 0.010833887 0.008629865 -0.026021553 -0.029626189 -0.017815776 0.009923826 0.02812866
-0.008393926 0.0018996504 0.020617668 -0.016174423 0.017658252 0.022649556 0.03267329 0.032787148
-0.020990811 -0.007447501 0.012616766 0.027462758 0.009849093 -0.016498825 -0.030149719 0.0010683245
0.014776916 0.018983394 0.018467395 -0.022005992 -0.014769199 -0.03545747 -0.021352332 0.021407383

fc_mu.bias f4 [2]
00000000: 9879 93bc 97be a93c
-0.018002316 0.020720763
