ppo_metadrive_model.pth (torch, 172155 bytes, 12 tensors)

log_std f4 [2]
00000000: bb01 febe eb99 fabc
-0.49610695 -0.030590972

policy_net.0.weight f4 [64, 259]
00000000: afe9 a03e f0bc 6abe eccc 183e a040 a73d
00000010: 59aa f7bc 19e9 69bd 4be7 4f3d 567f 943d
00000020: e98b 043e 551f cc3b 931d 143e 2268 673d
00000030: 35b7 bbbc 5a7d 36bc 3162 a23c b93c 2b3e
00000040: 8832 70bc debd 2bbc 4f66 d4bc 541e b33c
00000050: c5bf 833d 425c ab3c 9e72 22bc 6d35 4e3d
00000060: 2cb8 a9bc 0597 a73c 1ba5 593b adc3 68bd
00000070: dff5 1c3d 3c88 393d ddf6 70bd aefa e0bc
00000080: 5fb6 78bc ca09 d6bc 2dba 3f3c 8895 d8bc
00000090: 2d98 30bd 9a37 423d 5b82 99bc ea2f acbb
000000a0: 0211 62bd fc65 80bb 200c 083d e2db 27bd
000000b0: 24c3 3f3c f121 4abd 8213 313c 0c3b 823d
000000c0: 0d53 3c3d 5510 0fbd cb85 6d3d 859a 67bd
000000d0: 9ee0 1dbc 4534 023c b860 ac3c a388 38bd
000000e0: cd55 2f3c 78d0 863c d4c0 8cbd ec0e 13bd
000000f0: 24cd 0a3c 1783 913c 61ba 1b3d 9dc3 ddbc
00000100: aab4 6d3c 12ca 273c 2279 b8bc 304d 603c
00000110: d8b4 0b3d 9ec3 26bd 2840 e6bc a4ec 08bc
00000120: a4bc 313b cbe6 8d3c 9861 513c f789 26bd
00000130: c83d 23bd 9e16 75bd 900a 9abc ec87 753c
00000140: e0e2 04bd 7179 5d3d 69ee da3c 0794 023c
00000150: 7570 5c3d fc4c 53bb 5380 1c3d b15b 9539
00000160: 2c22 2e3d 9e36 c63b cfe8 0b3d d2e8 d6b9
00000170: 40d6 713c e4a1 e9bc f865 573d 28a1 98bc
00000180: 000b 7cbc d022 85bd d118 9f3a 6323 423b
00000190: 64b3 ed3c 0ef1 9a3a 7bdc 683d 14c4 3a3d
000001a0: 06d9 d239 3abb 673d f264 2abc d4fd 4abd
000001b0: d492 763b d436 8d3d 2147 7e3b ea8a 71bc
000001c0: 0cad e43c 7664 05bd b59f 40bd 9362 b7bc
000001d0: 7419 203d 3475 57bd 16d3 f93b ebb9 78bb
000001e0: 3332 23bd dbc8 94bc 5557 daba f831 8cbd
000001f0: 0b84 5bbd fd7c 17bc 3e0f 34bb cffa f4bc
00000200: e2c6 66bd 3fda 363d 56c6 343c 3197 013d
00000210: cb07 1a3d dea5 0fbd ebe4 5bbd 628a a8bc
00000220: 365c 99bc 9c11 e03c ae4b 73bc 4f0f 353b
00000230: bc2c 97bb 8e1a 4ebd e381 52bd 40ea 3ebb
00000240: 6a2a 57bc c2df 4fbd 3596 de3b c73d 25bc
00000250: c15a 4ebd 752c a8bc f27b ab3b 53b2 81bc
00000260: 8fda 43bb f772 c33c 5eb2 db3c c4ba 4f3d
00000270: 5709 503d 22f9 233d 2071 b6bc 8b7d 9dbc
00000280: e95e 4c3d 7aec de3c 7432 e93c 7961 183d
00000290: f8b0 223c c8a2 483c 1e9b 7abc b1cb 8dbc
000002a0: a0fa a1bc 45dc 79bd 3263 0dba e3ac 5a3d
000002b0: e74a 433d c52c 64bd ffde 1c3d c3b2 50bd
000002c0: 18cf d83c b75c 343d dd71 3fbd 128b 5ebc
000002d0: ff5b 693d 2ea0 aa38 5536 5c3d a7b7 5f3d
000002e0: a148 2dbd 39b1 ebbb 2b20 523d 34c4 66bc
000002f0: 91f8 cd3c 672c 5f3d cbff 693b 491e f03c
00000300: dff0 273d 42ca 6cbc 4ddb 1dbd 984f 87bd
00000310: dd97 fcbc 4932 123b 3be8 65bd 3122 3fbd
00000320: 4581 f5bc 9940 1abd a96a 31bd cb2a 7ebd
00000330: 3fba 1a3d 749b 7dbd efd6 1dbd fc92 07bd
00000340: 4c61 b93c 0b8a 1c3d a82b 21bc 602a 323d
00000350: d114 09bd 9d3f f5bc 5f19 eebc 95de 70bd
00000360: 67ac 6ebd b38a 763c 7f6f 1d3d edca 88ba
00000370: 1eb0 afbc 7dad 473d 51eb 04bc cf59 5e3d
00000380: 9d6d 81bd 9c33 35bd a737 003d 1c50 0d3d
00000390: a756 fc3c 9c24 893c 4ea8 19bd 8e30 213d
000003a0: 0a72 073d 70f1 6fbd 42c8 f4bc 4fd3 ecbb
000003b0: c544 393d a8ad a5bb 21cc b138 488c 5dbd
000003c0: 5ac8 7fbc 9cb2 a9bb 3c9f 54bd 53d2 7d3d
000003d0: 7d87 10bd d479 a93d e7ad 303d 6e46 adbc
000003e0: 5eeb 903d 149d 9ebc e319 383d 2eef ad3d
000003f0: 0a79 6a3d f1a7 85bb c904 133d 99d6 2e3c
0.31428286 -0.22923636 0.14921921 0.08166623 -0.030232595 -0.057107065 0.050757688 0.0725085
0.12943996 0.006229321 0.14464407 0.056495793 -0.022914508 -0.011138285 0.019822212 0.16722383
-0.014660485 -0.01048228 -0.02592769 0.021865048 0.064330615 0.020918015 -0.009915022 0.05034392
-0.020717703 0.020457754 0.0033209983 -0.056827236 0.03832042 0.04529594 -0.058829177 -0.027463283
-0.015180199 -0.026127715 0.011702103 -0.02643849 -0.043113876 0.047416307 -0.018738916 -0.0052547352
-0.055192 -0.0039184075 0.03321469 -0.04098118 0.01170424 -0.049348775 0.010807874 0.063589185
0.04597764 -0.034927685 0.057988923 -0.056543846 -0.009636072 0.007947032 0.021042213 -0.045052182
0.010701609 0.016456828 -0.068727165 -0.035902902 0.008471761 0.017762704 0.03801954 -0.027070815
0.014508406 0.010241048 -0.022518698 0.013690278 0.034108013 -0.0407139 -0.028106764 -0.008357201
0.0027120495 0.017321965 0.012779616 -0.040658917 -0.03985384 -0.059836023 -0.018803865 0.01498602
-0.032442927 0.054070894 0.026725011 0.007969863 0.053818185 -0.0032241931 0.038208317 0.0002848781
0.042513058 0.0060489913 0.03415757 -0.00040990725 0.014760554 -0.028519578 0.05258748 -0.018631533
-0.015383482 -0.065007806 0.0012138133 0.0029623143 0.029016204 0.0011821107 0.05685089 0.04559715
0.00040216016 0.056575038 -0.010400044 -0.049558476 0.0037624137 0.06895223 0.003879972 -0.014742592
0.027914546 -0.03256651 -0.04702731 -0.022385871 0.039086774 -0.052602008 0.0076240404 -0.0037952613
-0.039842796 -0.018162182 -0.0016658107 -0.06845468 -0.053592723 -0.009246108 -0.0027474905 -0.029904751
-0.056342013 0.04464173 0.011033615 0.031638328 0.03760509 -0.035070293 -0.05368511 -0.020573799
-0.018720727 0.027352147 -0.014849586 0.0027627533 -0.004613487 -0.050318293 -0.0513934 -0.0029131323
-0.013132671 -0.0507505 0.0067928084 -0.01008553 -0.05037952 -0.020529011 0.0052332813 -0.015832102
-0.002988491 0.02385853 0.02681845 0.050715223 0.050790157 0.040032513 -0.02227074 -0.019224903
0.0498952 0.02721237 0.02846644 0.037202332 0.009929888 0.012245841 -0.015295772 -0.017309042
-0.019772828 -0.06100108 -0.00053935044 0.053387534 0.047678854 -0.055706758 0.038298603 -0.05095173
0.026465937 0.044033732 -0.046739448 -0.013582962 0.0569725 8.1360675e-05 0.053762753 0.054618504
-0.042305592 -0.0071927574 0.05130021 -0.014084864 0.02514294 0.054485705 0.0035705443 0.029311316
0.041001197 -0.014452519 -0.03853922 -0.06606978 -0.030834133 0.0022307804 -0.056129675 -0.046663467
-0.029968867 -0.03765926 -0.04331461 -0.06205253 0.037775274 -0.06191583 -0.038535055 -0.03309916
0.022629403 0.038217586 -0.009837069 0.043497443 -0.033467118 -0.02993756 -0.029064832 -0.05880602
-0.058269884 0.015047717 0.03843641 -0.0010436453 -0.021446284 0.048749436 -0.008112744 0.054284867
-0.06319735 -0.04423867 0.031303074 0.034500226 0.030803038 0.01674109 -0.037514023 0.039352946
0.03306774 -0.058579862 -0.029880647 -0.0072273384 0.0452316 -0.005056102 8.47804e-05 -0.05408886
-0.015611732 -0.0051787626 -0.05190967 0.06196816 -0.03528546 0.0827519 0.043134596 -0.021151748
0.07076143 -0.01936201 0.044946562 0.084928855 0.057244338 -0.004078858 0.035893235 0.010671281

policy_net.0.bias f4 [64]
00000000: 7573 dfbc 5601 84bd 84d3 a53c 44da 0cbd
00000010: 8397 a83b 767d 123c eea2 abbc 7c13 49bc
00000020: aa9f 9bbc 92ed 043d 75b6 303c 4399 74bd
00000030: dc34 3abd 5018 c9bc b41f c23c 293e 123d
00000040: 1677 f83c 6c7d e33c 6dc9 1dbb d749 6fbd
00000050: d8bb c33c e038 d73c d369 623b 03f0 78bc
00000060: 8cc5 74bd ac7a 7b3c d8b8 143d 38a7 36bc
00000070: 4814 0ebd 642c 3cbd 2402 e33b b322 023c
00000080: 91da 26bd 5580 05bd 2d55 0d3d 0050 1fbd
00000090: cbd0 3ebd 3233 96bb 1085 373d 9400 19bc
000000a0: 1051 1c3d 142b 35bd 3ad6 853c 33d5 2f3c
000000b0: 7339 75bb c12f 893c fdee 57bd 5f11 42bd
000000c0: 006b c8bc c3a3 83bc c266 b53c 6c1f c13c
000000d0: b2f4 12bd be1c 19bc 46da 7cbd 7d05 62bd
000000e0: 621a b7bc 6535 423d a560 29bd 4527 a53c
000000f0: 059c 8ebb c510 683d e3e2 563d f1ab ee3b
-0.027276734 -0.06445567 0.02024246 -0.03438784 0.0051450147 0.008941045 -0.020951714 -0.012272712
-0.018997032 0.032453127 0.010785689 -0.059716474 -0.045460567 -0.024547726 0.023696758 0.03570381
0.030330222 0.027769767 -0.0024076358 -0.05842003 0.023893282 0.026272237 0.003454794 -0.015193942
-0.059758708 0.0153490715 0.036309093 -0.0111482665 -0.03468731 -0.04594077 0.0069277454 0.007942843
-0.040735785 -0.03259309 0.034505058 -0.038894653 -0.04658584 -0.0045837397 0.044804633 -0.009338517
0.038163245 -0.044230536 0.016337503 0.010731983 -0.0037418276 0.016746404 -0.05271815 -0.047379848
-0.024465084 -0.016069299 0.022143725 0.023574553 -0.03587789 -0.009345232 -0.0617316 -0.055181015
-0.022351447 0.047414202 -0.041351933 0.020160327 -0.004352095 0.056656618 0.05246247 0.0072836806

policy_net.2.weight f4 [64, 64]
00000000: d42e 39bd a4ef e1bd c04f 8bbc 1c4f 66bd
00000010: 1ce1 23bd 0884 d4bd e63a 9abd de49 a8bd
00000020: b012 d33d 424c 91bd 989e f9bd 8cd2 61bd
00000030: ae89 8ebd 4048 e2bd 829d bdbd 5889 46bd
00000040: 482f 72bd 2ce1 053d 3892 ca3d 0055 c0bd
00000050: 0002 7abc 005f c03d 266a e0bd 7c05 bf3d
00000060: 000d 913b 307d 01bc a093 af3b 58d1 d43c
00000070: 4874 833c a8e5 ca3c b6a4 e63d 6077 b43c
00000080: 003e fd3c c449 3e3d f0ea a8bd 46de e3bd
00000090: 8eeb edbd 3004 3fbd 0020 4d39 54fe 6dbd
000000a0: e474 7abd 6611 b43d a29a cb3d 66a6 e8bd
000000b0: a0f1 b6bc a4bd 31bd 4230 a63d 06d9 c4bd
000000c0: 44f5 b4bd 50d4 173d 2eb1 b3bd e854 6d3d
000000d0: 3e89 ca3d 4033 ea3c 0035 cc3a c8b7 88bc
000000e0: 64e2 f7bd 8ab3 d53d 78fd 8d3c d096 debd
000000f0: 6075 9dbb 5022 05bd bcf1 593d 6067 3a3d
00000100: f88c 0cbd d07a f7bd a067 153c de19 97bd
00000110: a5b1 c83c 892e cbbd e0cd 0e3d 6020 e53b
00000120: 941f 583d b55b fe3d ee0c efbc 5dc2 f1bd
00000130: 906f d73d 3e01 dc3d 6e25 333d b663 dc3d
00000140: ae3d e43d 482c 513d 4dab 15bd b8a3 bdbc
00000150: 70d6 283d 5091 4f3c 12a2 ec3c 7269 8a3c
00000160: d1ef 8a3d e4ea aabd 287b dabd ee45 e43d
00000170: 8c51 a8bd 86d1 ce3d 83e0 14bc 2056 00bd
00000180: a463 0cbd e8da fcbd 133d 083d 8ef4 8e3d
00000190: 4d72 89bd 615e 543d 2418 f73d e07f 443d
000001a0: c0b7 81bc 093e 5d3b 0cbc 823c f5bc bc3d
000001b0: f07d f8bd 4393 9ebd 952e 063c febc 93bd
000001c0: b345 033d 71a8 c13c e02c fcbd acc8 cbbd
000001d0: 80f5 a2bb 53f4 c3bd 50c8 863d 8320 6abd
000001e0: b655 db3d 8412 643d 28b1 babc 8616 6ebd
000001f0: e2fc 2f3d 84cb 883c 509a 083d 0de5 ab3d
00000200: 1cf6 bdbd a280 0dbc 925e a93d 08d7 c73d
00000210: 1c5f 633d 0bb9 b13d 78df fe3d 44d1 5d3d
00000220: 7e2c d6bd cdfc c5bd d7d5 c33d e772 1cbd
00000230: a715 903d b0d6 aa3d 2474 debc 5546 ec3c
00000240: 158c a83d 7856 14bd 1a24 b1bb e8c6 c2bd
00000250: 56f6 b63d 20e2 d93b a608 a43b fa44 ae3c
00000260: 9df6 e7bc 6e8a 803c a835 d1bc b81a 3cbd
00000270: 70f2 b23d 53da dc3d 2671 423d 0526 313d
00000280: 7998 aa3d d0cd 013c af6a 1abd 5e03 87bd
00000290: 0e0a f73d 4317 bf3d 6885 f63c bcf6 a5bd
000002a0: 58c2 dcbd a984 dcbd 50b7 89bc 193c 873d
000002b0: 22ba f63b 9b36 ffbd 78ac e83d 2679 833d
000002c0: 7eb5 483d c8e3 113d c57c 05bd 6a3c 9dbd
000002d0: a0ed bebd 2c89 823d 7452 dc3d 1f95 edbc
000002e0: f095 ef3c 5d6b 513d 7c58 a1bd d8f2 acbd
000002f0: 4307 7b3d e23c 19bd 2af9 efbc 8757 7fbd
00000300: 1bad a63c 2ced 57bd a205 9bbd 0a7b ccbd
00000310: 6036 10bd a403 753d fea2 b7bd 78c2 7bbd
00000320: e789 463d f866 ae3d 6ea8 ec3d 5c03 c13d
00000330: 0038 903b f658 e93d 615a 2c3b e6a0 b0bd
00000340: 2378 c7bd a8d3 34bd 28fc 06bd 62f4 d73d
00000350: 00f6 c83c 6c10 9dbd 28b2 c93c 3198 2c3d
00000360: f773 cc3d 9be6 83bb 34bb 0c3d 6652 b4bd
00000370: 8013 55bc e3a7 55bd ffc4 a9bc 24b3 c0bd
00000380: c3bb c13d 54bf dcbd 3b1f 913c e74d b6bd
00000390: 37d5 82bd d402 db3c a80e ce3c 507e 61bc
000003a0: 2846 4dbd 864b 883c fc81 2f3d 8159 c7bd
000003b0: 82a1 8abd 6162 b3bd 2e0f dbbd 1c92 c13c
000003c0: b983 36bc a542 903b 6b6d 00be f606 d23d
000003d0: 00c2 fbba 2c27 853d f099 29bd 8569 ad3d
000003e0: 1cef 1b3d 5850 4cbd 1ee7 a13d 7c25 ebbd
000003f0: a3b0 853d cb05 cd3d fa9f f2bc 3414 e33d
-0.045210674 -0.11032036 -0.017005801 -0.05622779 -0.040009603 -0.103767455 -0.07530765 -0.08217214
0.10306299 -0.07094623 -0.121884525 -0.055132434 -0.06959854 -0.11048937 -0.09258558 -0.048470825
-0.059127122 0.032685444 0.0989117 -0.093912125 -0.015259266 0.0939312 -0.10957746 0.09327218
0.0044265985 -0.007903382 0.0053581744 0.02597873 0.016046658 0.024767712 0.11261885 0.022029579
0.030913353 0.046457067 -0.08247936 -0.1112638 -0.11617194 -0.046634853 0.00019562244 -0.058103874
-0.06114663 0.08792381 0.09941603 -0.11359863 -0.022332013 -0.043393746 0.08114673 -0.096117064
-0.08835843 0.03706771 -0.08774029 0.0579423 0.09889458 0.028588891 0.001557976 -0.016689196
-0.121037275 0.10434635 0.017332777 -0.10868609 -0.004805252 -0.032503426 0.05320905 0.045508742
-0.034314126 -0.120839715 0.009118944 -0.07377981 0.02449877 -0.09920985 0.034864306 0.006992385
0.05276449 0.124198355 -0.02918097 -0.1180465 0.10519326 0.107424244 0.043736868 0.10761206
0.11144577 0.05106762 -0.03654032 -0.023149356 0.04122013 0.012668923 0.028885875 0.016895983
0.067840226 -0.08345583 -0.106680214 0.111461505 -0.08218679 0.10098557 -0.009086731 -0.031332135
-0.034274712 -0.123464406 0.03326137 0.06980239 -0.06711254 0.05184782 0.12065151 0.047973514
-0.01583469 0.00337589 0.015958808 0.09215728 -0.12133396 -0.07742932 0.008189817 -0.07213782
0.032048892 0.02363989 -0.12313247 -0.099503845 -0.0049731135 -0.095680855 0.06581175 -0.05715991
0.107097074 0.05568172 -0.022789553 -0.05812695 0.042965777 0.016698606 0.03335029 0.08393297
-0.09275457 -0.0086366255 0.08269991 0.09757811 0.055510625 0.08677872 0.12444967 0.05415465
-0.10457705 -0.096673585 0.09562271 -0.038195517 0.0703538 0.0834173 -0.02715499 0.02884213
0.082298435 -0.036215276 -0.005405915 -0.095105946 0.089337036 0.0066492707 0.005005914 0.021273125
-0.028315837 0.015691008 -0.02553828 -0.04592392 0.087376475 0.107838295 0.047471188 0.04324915
0.08329863 0.007922605 -0.037699398 -0.06592439 0.12062465 0.09330609 0.03009291 -0.081037015
-0.10779256 -0.107674904 -0.016811043 0.066032596 0.007529513 -0.12461587 0.11361021 0.064195916
0.04900121 0.03561762 -0.032589693 -0.07677539 -0.09322667 0.0637382 0.10757914 -0.02900177
0.0292463 0.05112778 -0.07878205 -0.08444756 0.061286222 -0.037411578 -0.029293615 -0.062339332
0.020346215 -0.05271642 -0.07569434 -0.09984405 -0.035208106 0.059817925 -0.08966635 -0.061464757
0.048471358 0.085157335 0.11555563 0.09424469 0.004401207 0.11393921 0.0026298987 -0.08624439
-0.09739711 -0.044147164 -0.03295532 0.10544659 0.024531364 -0.07669148 0.024621084 0.04213733
0.09983056 -0.004025293 0.03435822 -0.08804779 -0.013005137 -0.052162062 -0.020723818 -0.09409168
0.09459641 -0.107786804 0.017715087 -0.089015774 -0.06388324 0.026734747 0.025153473 -0.013763025
-0.050115734 0.016637575 0.042848572 -0.097338684 -0.067690864 -0.08758999 -0.10696255 0.02362924
-0.011139804 0.004402476 -0.1254174 0.10255234 -0.0019207597 0.06501612 -0.041406572 0.08467392
0.03806983 -0.04988131 0.0790541 -0.11481759 0.065278314 0.100108705 -0.029617298 0.11087838

policy_net.2.bias f4 [64]
00000000: 2416 d13d d0ca 88bd b7c5 7bbd f601 7dbd
00000010: 2507 b8bd 9b67 cb3d 0374 343d a057 c9bd
00000020: 75d3 9abd bfa8 ae3d aeb8 e33b da5f b93d
00000030: 95b4 d0bd b222 24bd 86e0 a83d 7e22 d9bd
00000040: 9cb0 c5bd 3710 c93d b168 cbbd 3a76 96bd
00000050: cedd af3c c85d 0cbd ee5e 89bd 805b b13d
00000060: 5505 4bbd a995 233d 5cb8 ff3d 7ac4 fcbd
00000070: 10d4 63b9 71bf 8cbd e4de 29bd 1c4e 30bd
00000080: 2d70 bb3a b2dd 46bd 821a 913d ece4 bc3d
00000090: 6956 233d 85c3 48bc 4d88 bd3d 2094 ed3d
000000a0: 66ec a43d f8f9 d03d 277b c53c 948b bd3c
000000b0: b121 e53c 0042 c639 dd1c 6d3d 26b0 cb3d
000000c0: c0fc db3c 3049 873d 227c 8aba 618d c7bd
000000d0: 6eca 543c 4eb6 8bbd e8b4 3abd 53c3 c53d
000000e0: 9a60 823d 5deb 593d 8df5 4cbd e039 77bd
000000f0: 900c 7bbd a99e 643a b2b2 52bd 26b4 4cbd
0.10209301 -0.066793084 -0.061467852 -0.06176945 -0.08985738 0.099318705 0.04405595 -0.09831166
-0.075598635 0.085282795 0.006949506 0.09051485 -0.10190693 -0.04007215 0.082459494 -0.10602282
-0.09652826 0.09817546 -0.09932078 -0.07346769 0.02146807 -0.034269124 -0.067075595 0.0866003
-0.049565632 0.03993765 0.12486336 -0.123421624 -0.00021727406 -0.06872452 -0.04147233 -0.04304324
0.0014300399 -0.04855127 0.07085134 0.09223351 0.03987733 -0.012253647 0.09254513 0.11600518
0.08052902 0.10203928 0.024106575 0.023137845 0.027970167 0.00037814677 0.057888854 0.09945707
0.026853919 0.06605756 -0.0010565559 -0.09743763 0.012987716 -0.06821881 -0.045582682 0.09656396
0.063660815 0.053202976 -0.050038863 -0.06035793 -0.061291277 0.0008721152 -0.05143995 -0.04997649

policy_net.4.weight f4 [2, 64]
00000000: e0f2 b6bb e00c ff3d 7dc0 d03c 1f2d 8cbd
00000010: d037 fcbb 1130 e83d 481b 03bd 48b2 f83d
00000020: d6b9 cbbc 72cc 88bd 7e24 85bc 54d0 35bd
00000030: 0a3b 7d3d b611 293d 9ec3 0cbe 4dec 6dbd
00000040: b324 8b3c a061 34bc 1f54 22bc 5df5 c0bd
00000050: 2ece b13d ee85 97bb 82a3 e6bd 9888 8b3d
00000060: f561 a13b 7e07 9f3d 40a8 e43b 3593 263d
00000070: 69b9 ca3d 395c 10bc 4040 443b 604f 233d
00000080: 7b25 823d 11e7 ef3d 64bd ebbd 5f16 173d
00000090: 5498 fbbd a8ac 61bd 16e5 da3c 758e 27be
000000a0: a48d c9bd dd3b e63b fdb4 25bd fef9 7ebe
000000b0: e5c8 6ebd 9049 79bd a161 1e3e aa1d f73b
000000c0: 182b 043e d653 bebd 32a5 b0bd 0230 d43d
000000d0: 2c06 b0bd 9ab8 b33d fa50 f53d 3083 d03d
000000e0: e27a ad3d b094 ac3d 32d0 703d fad4 fabd
000000f0: 3dae e33d d2c8 163d 7b25 943d d8f6 a43b
00000100: 88a5 87bd 3c4d 893c 774d 75bd b8dd 82bd
00000110: e58e bebd d304 abbd b6ad d8bd 1c3a 533d
00000120: ef7f e33d 4d3d ba3c a90d 093c 396f 0fbc
00000130: 2bd2 0bbd ed7e bfbc 7d17 c53d 1845 6e3d
00000140: 5139 2b3a db06 ec3d 73fb 04bd acdd 863d
00000150: 02e5 f43d 641f b5bd a4ae bd3d 8610 5ebd
00000160: 823e a7bd e856 1c3e 40e7 633c ef18 e2bd
00000170: 85bb afbd 9764 01bd 00e5 5dba 0886 12bd
00000180: 043a aa3d 84c9 f4bb 7aee 3bbd 5b52 8abd
00000190: d2af 043e a92a a13d 4df3 683d 75e8 e2bd
000001a0: 6851 ef3c e82c 183e a087 173e c912 9fbc
000001b0: 05ed d5bc 827f 933d d625 813d 4ffa a23d
000001c0: 8de2 c83d 75ca d8bd 54ca 073e 86d2 94bd
000001d0: aac6 c2bd c28f 9d3d b08c cf3d 4de5 f13c
000001e0: 0042 23bb d8df 653d 7a40 183e a8f1 d0bc
000001f0: 0a6e 97bb 2e3f 0e3e 7bc6 e7bd e916 77bd
-0.005583152 0.124536276 0.02548241 -0.06844544 -0.007697083 0.11337293 -0.03200844 0.121433794
-0.024868887 -0.0667962 -0.016252752 -0.04438813 0.061823882 0.041276656 -0.13746497 -0.058086682
0.016985273 -0.011009604 -0.009907751 -0.09421799 0.08681904 -0.00462412 -0.112616554 0.068131626
0.0049250075 0.07765101 0.006978065 0.04066773 0.098986454 -0.00881105 0.0029945523 0.03987062
0.06354805 0.11713994 -0.11510733 0.03688657 -0.12284914 -0.0550963 0.026720565 -0.16362937
-0.09841469 0.007026179 -0.040455807 -0.24900052 -0.058297057 -0.06086117 0.1546693 0.007541378
0.12907064 -0.09293334 -0.086252585 0.10360719 -0.08594927 0.08775444 0.11978336 0.10181272
0.08470704 0.084267974 0.0587923 -0.12247653 0.11117218 0.03681261 0.07233711 0.005034309
-0.066233695 0.016760461 -0.05988833 -0.06389946 -0.09304599 -0.083505295 -0.10580008 0.05156909
0.11108386 0.022734309 0.008365073 -0.008754545 -0.03413598 -0.023375953 0.09623621 0.05817136
0.0006531673 0.11524745 -0.032466363 0.06585249 0.11957742 -0.08843878 0.09261826 -0.054214977
-0.08166219 0.15267527 0.013910115 -0.11039912 -0.085806884 -0.03159007 -0.00084646046 -0.035772353
0.08311847 -0.0074703116 -0.045881726 -0.06753989 0.12957695 0.07869465 0.056872655 -0.11079494
0.029213622 0.1486088 0.1479783 -0.019418137 -0.026113996 0.072020546 0.06306045 0.07957899
0.09808836 -0.105854906 0.13260776 -0.07266717 -0.095105484 0.07693435 0.10134256 0.029528284
-0.0024911165 0.056121677 0.14868346 -0.025505856 -0.004621272 0.13891289 -0.11317154 -0.060324583

policy_net.4.bias f4 [2]
00000000: c28a a8bd f232 bdbd
-0.08229591 -0.09238233

value_net.0.weight f4 [64, 259]
00000000: 8cbb d2bc 2e48 34bd 3dfb a93c 6ce3 00bd
00000010: bf2e 28bc 72ab 66bd bdab 813c 3ff6 093d
00000020: b123 50bd 3fcd 7abd f233 3c3d d802 46bc
00000030: 515a 08bd eaa8 563a a982 e0bc 160a 043d
00000040: b281 223d 26d4 42bd d1d6 1d3d 909b 32bd
00000050: 7d4c 9f3c e56c 7bbd 13b5 62bc 800b 4abd
00000060: c19d c6bc c912 6c3d c497 b8bc 6a89 623d
00000070: 8de7 073d 71f7 343d c498 873c d3fd f1bc
00000080: f5c4 38bd 9df9 47bd cad7 f73c 8140 613d
00000090: 0b09 b6bc fc5f 78bd 81d0 2cbc ab49 27bd
000000a0: 9078 033b 9daa 57bd d1a3 90bb a1bc ebbc
000000b0: 65ff 753c 21a2 123d f020 b9ba a63b 40bd
000000c0: 9323 513d c1e6 373d 6034 81bd c7a3 ed3c
000000d0: 33dd 01bc dfb7 913b 2dfe 31bd 8d13 673b
000000e0: 6909 1dbd daef dd3b 51b9 fabc 4fea 493d
000000f0: 2977 e4bb 8fa3 35bd b858 e83c c2ef 453d
00000100: 8a3c 2a3d 318d 0abd ca0d d0ba db00 1b3d
00000110: 5d66 64bd 3bdc 68bd 8b68 0cbd 3ed6 66bd
00000120: 9c31 ea3c e0e2 183d 7d66 45bd 181d 5cbb
00000130: f207 7abc 5e83 3c3d f4a0 ccbc 86cc bd3c
00000140: 47db 53bd 4f8c 683d 8d4e 153d fbea 3a3d
00000150: 67b9 383d 084d 993c b507 3a3d 02bd 5f3d
00000160: c9cc c4bc aa61 173d f560 78bd 9366 613d
00000170: cf9c 1e3c bb4a 4b3c 6f27 6dbd 29d2 30bd
00000180: 9f2a 3ebd e8d8 733d bbc4 08bd 67c0 7e3c
00000190: 3b5f 0b3d d241 e03b 8224 4abc 6c33 a7bc
000001a0: e3e6 86bc 680c 0f3d 97a0 86bc 5aa7 5abd
000001b0: 823b 5f3d 903e 09bc 0822 663d 30ee dfbc
000001c0: df73 5dbd 1b65 cfba 815e 68bd 6025 8b3c
000001d0: 5609 6f3d c600 e1bc 4a9d 7dbd be34 643d
000001e0: 7fbe 9a3c 5ca4 1a3c 3ed4 c9bc d06f 013d
000001f0: 9ec0 593d 7893 a63c ef14 0a3d 44f6 403c
00000200: 1c4b f6ba 02c5 91bc 39f5 3cbd 25aa 1d3d
00000210: 0036 a7bc 093d 683d b82b 313b 7834 22bc
00000220: 7cc9 48bc cff5 263d f01a 31bc e0b2 62bd
00000230: f7b9 b6bc 8ca1 043d 0039 113d 7a04 6f3b
00000240: e1e7 61bd f894 77bc 081f d3bc 4c19 de3c
00000250: 14ae 3f3c 7ca1 3c3c e4b8 983c 63dd 7fbd
00000260: 51ed 3c3d b033 59bc b836 57bc c12d 2dbd
00000270: 2435 ec3c 5565 11bd a9a2 583d 6039 2fbc
00000280: a1ae 1e3d ad46 74bd b553 0b3d 445c 96bc
00000290: 6d10 273d 0f44 65bd 8d1f 52bd 2d3a 79bd
000002a0: 3694 d0bc a90b 6cbd 2b08 6f3d 761b 80bc
000002b0: e556 28bd 6790 7abd d807 68bc 8b1d 19bd
000002c0: 5e12 abbc 41b4 a43b ef17 19bd a5d1 11bd
000002d0: a853 db3c 1251 82bd 294b 1b3d 1880 c43c
000002e0: f413 cf3c 4f0f 663d 5449 573c 39ee 463a
000002f0: bbb3 3a3b 377b 31bd 2344 183d 781f 31bc
00000300: b111 a53b a514 673d 952c 34bd 1964 3d3b
00000310: 9d89 653d eda0 fa3c e87d c83c 1b17 71bd
00000320: 54af e4bc 143a afbc edb8 5e3d 59f1 02bc
00000330: 6cf3 dbbc 6154 263d 7f6b 6dbd f522 25bd
00000340: 32f9 8cbc 0b0a 69bd 64cb 4e3c 287b b83c
00000350: 20e6 6cbc 1d1d 07bc f09c dabc 0da3 a3bb
00000360: c580 70bd 5224 013b 0476 4a3c c3b4 1a3d
00000370: 31a0 aa3b 8c7d 72bb 41f4 5ebd 6b1e 98bb
00000380: 744e afbc 4471 393c c423 43bc cb80 19bd
00000390: 2ba3 143d 1899 d83c cd63 0e3d 55d1 39bd
000003a0: 0dfd 15bd 935e 38bd e15e c33c 79a5 293d
000003b0: a4b8 95bc 3338 383d 8c7f 57bb 1b9b 0b3d
000003c0: 35f1 4f3d 7d85 063d 1aba 94bb 6410 4a3c
000003d0: 27cc 3b3d 5bed 063d f72c 66bd 8320 73bd
000003e0: 144c 1c3d d46a 15bc 3445 193d 5bbf d1bb
000003f0: 9e31 143d 9173 1e3d 3d57 05bd 35f2 04bd
-0.025724195 -0.04401415 0.020749683 -0.031466886 -0.010265051 -0.056315847 0.015828962 0.033682104
-0.050815288 -0.061230894 0.045947976 -0.012085639 -0.033289257 0.00081886223 -0.027406054 0.03223618
0.03967447 -0.0475656 0.038534943 -0.043605387 0.019445652 -0.061383147 -0.013837117 -0.049327374
-0.024245145 0.057635102 -0.022533305 0.05530683 0.03317981 0.04418129 0.016552337 -0.029539978
-0.045109708 -0.048822034 0.030254263 0.054993156 -0.022221109 -0.060638413 -0.010547758 -0.04084174
0.0020060875 -0.052652944 -0.0044140597 -0.028776469 0.015014504 0.03579915 -0.0014124196 -0.046931885
0.051059317 0.0448978 -0.06308818 0.02900876 -0.007926273 0.004446968 -0.04345529 0.0035259456
-0.038339052 0.0067729773 -0.030605944 0.04929572 -0.006972213 -0.044345435 0.028362617 0.048324354
0.04156164 -0.033826057 -0.001587325 0.037842613 -0.055761684 -0.056850653 -0.034279387 -0.05635666
0.028588109 0.03732574 -0.048193444 -0.0033586677 -0.015260683 0.04602372 -0.024979092 0.023168813
-0.05172279 0.056774434 0.036451865 0.04563425 0.04509869 0.01871349 0.045417506 0.05462361
-0.02402343 0.036958374 -0.06063934 0.055029463 0.009680941 0.012407954 -0.057898935 -0.043169174
-0.046427365 0.05953303 -0.03339074 0.015548802 0.034026366 0.006843784 -0.012337806 -0.020410262
-0.016467517 0.03492394 -0.016433997 -0.053382255 0.05450011 -0.0083767325 0.0561848 -0.027335256
-0.05406558 -0.0015822978 -0.05673075 0.016985595 0.058358513 -0.02746619 -0.06191758 0.05571436
0.018889664 0.0094386 -0.024637338 0.031600773 0.05316221 0.02033399 0.03371137 0.011777464
-0.0018790695 -0.017794136 -0.0461323 0.03849234 -0.020411491 0.056698833 0.0027034115 -0.009900205
-0.012255069 0.040761765 -0.010809645 -0.05534637 -0.022305472 0.032380626 0.03545475 0.0036471174
-0.055152778 -0.0151112005 -0.025771633 0.027111672 0.011699218 0.01151311 0.01864285 -0.06246699
0.04612476 -0.013256952 -0.013135605 -0.042279962 0.028833933 -0.03549703 0.0528895 -0.010694832
0.038740758 -0.059637714 0.034015376 -0.018354543 0.04078715 -0.05597311 -0.05129962 -0.060846496
-0.025461297 -0.057628307 0.0583574 -0.015638094 -0.041098494 -0.06117287 -0.014162026 -0.03738169
-0.020882782 0.0050263708 -0.03737634 -0.035600323 0.026773289 -0.06363119 0.037913475 0.023986861
0.02527807 0.056166943 0.013140041 0.00075885985 0.0028488475 -0.043330397 0.037174355 -0.010810725
0.0050375094 0.056416173 -0.04398783 0.0028898774 0.05603944 0.030594314 0.0244741 -0.058859926
-0.027915634 -0.021389998 0.054375578 -0.007992112 -0.026849471 0.040607814 -0.057963844 -0.04031654
-0.01720867 -0.056894343 0.012621734 0.022519663 -0.014459163 -0.008246687 -0.026686162 -0.0049938024
-0.058716554 0.0019705486 0.012357239 0.037770044 0.0052070846 -0.0037001101 -0.054432157 -0.004642298
-0.021399714 0.011318509 -0.011910383 -0.037476342 0.03628842 0.026440188 0.034763146 -0.04536565
-0.03661828 -0.045012068 0.023848953 0.041417573 -0.01827652 0.04497547 -0.003288242 0.034083467
0.050767142 0.032842148 -0.0045387866 0.012333009 0.04584899 0.032941204 -0.056195226 -0.059357177
0.03815849 -0.009119708 0.037419513 -0.006400985 0.03618013 0.03868443 -0.0325539 -0.03245755

value_net.0.bias f4 [64]
00000000: 5604 edbc 8016 b4bc 57fe a73c eb5d 1bbd
00000010: 76a5 963d aab1 603d 6e49 1ebd 2eed 613d
00000020: fc32 413d 0313 02bd 6a05 053d 50c2 3b3d
00000030: 2b2f e63c 192d 3e3c af97 623d 1bfd cc3c
00000040: e704 c83d abae 393d 8a48 823c fac3 32bd
00000050: 0e63 603d 14ad 163d a214 233d ad53 383d
00000060: a655 8d3c b324 03bd 2fc9 6a3d e5b3 03bd
00000070: 6a6a 663c 6fa9 1b3d c552 f63d ade8 553d
00000080: 517b 633d 36f4 803d e9e9 c33c 0047 733d
00000090: 0a21 d53d 1ee9 563d 2ad2 413d 9cb6 6f3d
000000a0: 50d3 f73c 2b3e 1f3d ba3f 8dbc 3667 2e3d
000000b0: 9815 a53a 1bb3 293d 9cec 73bd 21b7 f23c
000000c0: 1dfe 6a3d b912 e73c ce83 98bc 1536 583c
000000d0: f5e7 01bd 4cd2 563d 546c 75bd f965 413c
000000e0: d69d ca3d 146d e0bc 5361 4cbd 9882 7c3d
000000f0: 7350 d43c a7f2 5abd e424 bd3d 4304 8c3b
-0.028932732 -0.021983385 0.02050702 -0.037931364 0.07355778 0.054856934 -0.038644247 0.055157833
0.047167763 -0.031756412 0.032475866 0.045839608 0.028098663 0.011607432 0.055320438 0.025023034
0.0976656 0.045332592 0.01590373 -0.04364393 0.054781966 0.036786154 0.0398146 0.045001674
0.017252754 -0.03201742 0.05732077 -0.032153983 0.014063457 0.03800338 0.12027506 0.05222385
0.055537526 0.062965795 0.023915248 0.059393883 0.10406692 0.05246841 0.04731957 0.05852376
0.030252129 0.038877647 -0.017242301 0.0425789 0.0012594936 0.041430574 -0.05955182 0.029628338
0.057371248 0.02820717 -0.018617537 0.013196488 -0.031715352 0.05244665 -0.059917763 0.011804097
0.09893386 -0.027395763 -0.049897503 0.06164798 0.025917267 -0.053454068 0.09235552 0.004272969

value_net.2.weight f4 [64, 64]
00000000: 2411 e13b 2045 5bbd 16da 713d 2d42 dabd
00000010: 0fcf e63d 187d 85bc ab6d 7d3d 5fa3 bb3d
00000020: a1d9 edbb 7702 f43d db50 303e 72a1 e9bd
00000030: 67a8 b33c 2c46 ed3d f6a2 8d3d ec83 0abd
00000040: 6857 423d 23e5 593d cad5 563e f2ef 09be
00000050: 10d3 2abc 9c28 bb3c 46f9 b23d d115 bbbc
00000060: c120 6d3d b8d4 cb3b 616f b53d ca24 3ebd
00000070: 27c8 053d 31e5 4e3e 399f e13d 9e4b 2c3d
00000080: 30e7 8abd 69b0 393e 28d4 4c3e ccd8 fcbd
00000090: eedb 923c ae2c 343e 713a a03d 7373 8e3b
000000a0: 1474 c4bd 6e40 37bd bcd5 8fbd f52f 8dbd
000000b0: 23e9 623d 9b9d ca3d db55 603d 7f76 5e3c
000000c0: 6e9d 8b3d 58a3 143e 7ca8 bb3d 0d17 1dbc
000000d0: cf29 87bd 8cd1 afbd 3489 8cbd 74a6 473e
000000e0: 4e17 cebc 7001 353c c3f9 883d 6614 e2bd
000000f0: 64e9 65bb 3f58 953c c3e8 0b3e 80a5 8e3d
00000100: 7e92 eebd 7aa9 df3d fc97 573d 8069 a13a
00000110: aeea 94bd 9814 a3bd 5ca9 933d e025 72bd
00000120: 0401 78bd f83f b1bc 2c4d 073d a0a4 c8bd
00000130: 34a2 47bd 4893 8ebd cefd 80bd c842 f73d
00000140: 282c f4bd d0e4 c3bc 842c e4bd 3078 4a3c
00000150: b0f1 713c 38d3 00bd 14e4 f6bd 40b6 1abc
00000160: c0ab b2bb 2643 a6bd 7281 9b3d e0ac b63b
00000170: 0e4b 953d 6067 b63d 88b5 f13d 2813 4bbd
00000180: 48cd 8abc 682c 52bd 3445 67bd 48ef ae3d
00000190: b0ae 42bd 2e1d cfbd 8e67 c4bd 48f3 b53d
000001a0: 68a3 6bbd 4862 903d 88cb 053d e46a 223d
000001b0: 2cb3 99bd 50d1 813c 80fe 873c a214 c5bd
000001c0: e8fe f63c 18ad 8fbc 92ce 873d 20a6 b73d
000001d0: 98b0 91bd 4cbb bfbd 367e 8f3d 6420 6cbd
000001e0: 18bd f8bd 782a e73d 5426 693d dc3b 043d
000001f0: 723e f63d 8c1b 5bbd a8d7 f13c 882c eabc
00000200: c05b 9abd c011 6e3d 00e2 e9bd a937 7ebb
00000210: f3b5 183e 607d bebd adb0 1b3d 815e 953d
00000220: 1c81 f13b a730 483d 3553 91bc c0ce 483c
00000230: f2f7 8238 30c3 0b3d d44f ea3d 9f40 903d
00000240: 4176 283e 9ee5 143e 4fe4 3d3e 7341 70bc
00000250: a0f0 9b3c 16b6 3e3d c516 d0bd 412e d6bd
00000260: abc2 9c3d 4495 b93c 8eb3 e4bd d1cf ae3d
00000270: 8599 bd3c 5122 d3bc e015 51bc 0d91 393d
00000280: a389 623c 27ee 96bb b7cf 513e b477 21bd
00000290: 5f95 493e 4532 093e 6af2 b4bb 2d47 ecbd
000002a0: a053 31bd 8add f5bd 384c b33c ca5b aebd
000002b0: 5a5b 993d 5f54 d0bd 12c8 e1bd 1d58 4b3e
000002c0: 493c 793d ed95 8d3d 3419 b6bd d964 cf3d
000002d0: fc8c be3d d486 cabd 3853 c6bc f03f 533e
000002e0: 36b7 353e 648f 6e3d b15e 903d 7466 adbd
000002f0: 4b78 443e 8516 173d dd62 563e 19e2 193e
00000300: 4fa8 cc3c d011 d63d c89c febd 49e3 143d
00000310: d95b ddbc c2de d0bd b7be a5bd 3548 783d
00000320: f9b4 59bd 41da b13d 11f1 ce3d 1493 673d
00000330: a0da 783d 19b2 8fb9 17b0 00bc 0f52 d73d
00000340: 63d4 e3bd c4a4 15bc 7877 3e3d ce64 353d
00000350: 04f6 d63d e455 843d 13ba f8bd cff9 d73d
00000360: f73d fb3d 5819 fdbd 305a eebd 921d a3bd
00000370: 82d9 0f3d 52d4 963d 1b9a 63bd 1dad 513d
00000380: d88e 4b3d 6beb fdbd dbf2 fd3b fc5d 64bd
00000390: a356 47bd e694 69bd 1686 8f3d 5847 d9bd
000003a0: 4ecd fd3d 5e06 8c3d c617 b03d 172a 953d
000003b0: 0fa7 d7bd fefe c6bd b49f 98bd 2653 a43d
000003c0: f7be 663d 805e 92bd 5403 d93d c4e7 e23d
000003d0: 8f8c adbd 806b 16bb 8065 d53a 9f7f dabb
000003e0: 60c0 acbc f69e 81bd 3b42 e3bb 62c9 f0bd
000003f0: da30 67bd 0154 4e3d 09b7 98bd c3cd a4bd
0.0068684984 -0.05353272 0.059045874 -0.10657153 0.11269962 -0.016295 0.061872166 0.0916202
-0.0072586094 0.11914533 0.17218344 -0.114077464 0.021930886 0.1158565 0.06915848 -0.033817217
0.04744664 0.053197037 0.20979992 -0.13470438 -0.010426298 0.022846512 0.087389514 -0.022837551
0.057892565 0.0062204264 0.088591345 -0.046421804 0.032661583 0.20204617 0.110166974 0.0420643
-0.06782377 0.18133701 0.20002806 -0.12346038 0.017927136 0.17595169 0.07823647 0.0043472587
-0.09592453 -0.04473918 -0.070231885 -0.06893913 0.055398118 0.09893342 0.05476938 0.013578056
0.06817137 0.14515436 0.09162995 -0.009588015 -0.06599771 -0.0858489 -0.06862107 0.1949709
-0.025157597 0.011047706 0.06688263 -0.11039047 -0.0035081739 0.018230556 0.1366301 0.0696516
-0.11649035 0.10920997 0.052635178 0.0012314767 -0.07271324 -0.07962912 0.07210037 -0.05911815
-0.060547844 -0.021636948 0.03303258 -0.09797025 -0.048738673 -0.069616854 -0.062984094 0.120732844
-0.11922485 -0.023912817 -0.11141303 0.0123577565 0.014767095 -0.031451434 -0.12055221 -0.009442866
-0.005452603 -0.08118276 0.07593049 0.0055748075 0.07289706 0.08906436 0.118022025 -0.049578816
-0.016943589 -0.05131188 -0.05646248 0.08541733 -0.047529876 -0.101129875 -0.09590064 0.08884293
-0.057528883 0.07049996 0.032664806 0.03965272 -0.075048774 0.015846878 0.016600847 -0.09623076
0.030150846 -0.017538592 0.06631197 0.08967233 -0.07113761 -0.09361896 0.07006495 -0.057648078
-0.12145442 0.11287397 0.05692132 0.03228365 0.12023629 -0.053493068 0.029521778 -0.028585687
-0.07537031 0.058122396 -0.11420059 -0.00387905 0.14913158 -0.09301257 0.038010288 0.07293416
0.0073701274 0.048874523 -0.017739872 0.012256324 6.2450665e-05 0.034121692 0.11441007 0.070435755
0.1645136 0.14540717 0.18544124 -0.014664042 0.019035637 0.04656037 -0.10160593 -0.10458041
0.076543175 0.022654183 -0.1116706 0.085357316 0.023144493 -0.0257732 -0.012761563 0.045304347
0.01382676 -0.0046060267 0.20489393 -0.0394208 0.19685887 0.13398083 -0.005522062 -0.11537013
-0.04329264 -0.12005146 0.02188693 -0.08513601 0.07488127 -0.101723425 -0.110244885 0.19857831
0.060848508 0.06913362 -0.08891526 0.10126657 0.093042344 -0.09888998 -0.024209604 0.20629859
0.1774567 0.058242217 0.07049311 -0.08466807 0.19186513 0.03688671 0.20936151 0.15027656
0.0249826 0.10452616 -0.124322474 0.03634957 -0.027021335 -0.10198738 -0.080930166 0.060615737
-0.053151105 0.08684207 0.101045735 0.05653675 0.060755372 -0.00027407779 -0.007854483 0.10513698
-0.11124494 -0.0091335215 0.046500653 0.044285588 0.104961425 0.06461695 -0.12144866 0.10545694
0.12267678 -0.123583496 -0.11638296 -0.079646245 0.03511954 0.07364716 -0.05556689 0.051190484
0.049696773 -0.12398418 0.007749898 -0.055753693 -0.048666608 -0.057026766 0.07007997 -0.10609311
0.123926744 0.06837152 0.085982844 0.072834186 -0.10529911 -0.09716605 -0.07452336 0.08023672
0.056334462 -0.07146931 0.10596338 0.11079362 -0.08474075 -0.0022952259 0.001628086 -0.0066680457
-0.021087825 -0.063291475 -0.0069353855 -0.11757161 -0.056443073 0.05037308 -0.07456786 -0.080470584

value_net.2.bias f4 [64]
00000000: 49d0 ae3d 7c7a bb3d f953 263e aedd 223d
00000010: f818 de3d a454 97bd bcc8 063b c760 9f3d
00000020: 2e88 b93b c895 d13c 8e18 56bd b4b4 88bd
00000030: 7246 c0bd e029 cc3d df60 0abe e994 a93d
00000040: ac34 3b3e ced9 4abd d0bf 82bc fb42 03be
00000050: 9084 a5bd 2c3d 98bd 09b2 123e a3f5 c73d
00000060: eb9c d63d 1f12 bf3d e56f 26bd ec7f e43d
00000070: 21e9 c83d 4a40 eebd 29d8 263e 7793 6b3d
00000080: f4e1 af3d a61e 363e 3a19 b7bc aa5d 6fbd
00000090: 4663 e33d 6d24 1a3e 6bfc c63d 8204 9cbd
000000a0: 4e72 9abd 34e4 a43d c42f 68bd fc02 0c3c
000000b0: 9063 343e 4c94 b5bd fd15 983d 9391 173d
000000c0: 0df1 8abd 809c c3bd 6b0f 023d a849 303e
000000d0: f336 15bd 3eaf 99bd 0521 8d3d 7f8f 66bb
000000e0: 4a4b 9cbd 5faa 0a3e e076 ca3b b931 d0bd
000000f0: 5a55 06bd ba86 c23d 2d82 2b3d 5f4e 753d
0.08535821 0.091542214 0.1624297 0.03976219 0.10844606 -0.07389191 0.0020566424 0.07782131
0.005661986 0.025584117 -0.05226951 -0.066750914 -0.093884364 0.099689245 -0.13513516 0.082803555
0.18281811 -0.04952412 -0.015960604 -0.1281852 -0.08081925 -0.074335426 0.14325728 0.09763648
0.104791485 0.09329628 -0.040634055 0.11157212 0.09810091 -0.11633356 0.16293396 0.05751368
0.08588019 0.17785129 -0.022350896 -0.058438934 0.11102919 0.15052958 0.09716114 -0.07618047
-0.07541333 0.08051339 -0.056686178 0.008545633 0.17616105 -0.08866176 0.07426069 0.037004065
-0.06784258 -0.095513344 0.031752985 0.17215598 -0.036429357 -0.07504128 0.068910636 -0.0035180745
-0.07631548 0.13541554 0.006178722 -0.10165734 -0.03279624 0.09498353 0.041872192 0.059889194

value_net.4.weight f4 [1, 64]
00000000: 6330 df3d fc32 16bd 69f1 173e 9620 efbd
00000010: e019 f0bd c415 76bd 0ba1 0cbd b2ea 0bbd
00000020: bb32 0e3e 7087 9c3d d8da e3bd 088b bc3d
00000030: 6b1b 8bbd 834a 5fbd f726 35bd aa27 49bd
00000040: 1af8 453e b06c 683c 92e6 d3bd c7be 293b
00000050: b640 9ebc dea4 f9bb 2d4c d13d e5cd 363e
00000060: add6 8a3d cfda 2f3e c2ba 273e 234c eabd
00000070: cef2 063e 2895 b3bd e1e6 e43d b359 0b3e
00000080: b3c9 cdbd 97a9 063e e117 213e 76ea d2ba
00000090: 498b 88bd 218b 0a3e 8911 dcbc 806c 043c
000000a0: c673 bbbd 6a16 d0bd dec1 d63d 3594 c5bc
000000b0: e378 be3d 0498 263d 42ed cfbd 8218 88bd
000000c0: a2d0 37bd 4044 8abb 01ac 5fbd 87f7 fe3d
000000d0: 0c4e 4b3e 4027 3fbb 2112 c4bc 95cb b4bd
000000e0: b082 443c d93e 3a3e 2c4f 59bd 0d15 a5bd
000000f0: eee9 f23d 7326 e5bd 5fb4 adbd 98bd 453e
0.10897901 -0.036669716 0.14838184 -0.11676137 -0.11723685 -0.06007935 -0.03433327 -0.03415937
0.1388654 0.0764302 -0.111257255 0.092062056 -0.06792339 -0.05451442 -0.044226613 -0.049110092
0.19332924 0.014186069 -0.10346712 0.0025901066 -0.019317966 -0.0076185307 0.102196075 0.1785198
0.067792274 0.17173313 0.16379836 -0.11440303 0.1317856 -0.08768684 0.11176849 0.13608436
-0.10048237 0.13150631 0.15731765 -0.0016091603 -0.066671915 0.13529636 -0.02686383 0.008082509
-0.091529414 -0.10160525 0.10486196 -0.024118522 0.09300401 0.040672317 -0.10152675 -0.066452995
-0.044876702 -0.004219562 -0.054607395 0.12449556 0.19853991 -0.0029167682 -0.023934426 -0.08827893
0.011994049 0.18188037 -0.05305402 -0.08060656 0.11861025 -0.11188974 -0.08481669 0.19310606
