ppo_trained_model_1.pth (torch, 394297 bytes, 23 tensors)

conv1.weight f4 [32, 5, 8, 8]
0	0x3a646dc0	0.0008713864
1	0x3d34e758	0.04416594
2	0x3a713ed4	0.00092027825
3	0x3d798e4f	0.06092673
4	0x3d72e97a	0.05930469
5	0xbcd640fe	-0.026154038
6	0x3c53ea02	0.01293421
7	0xbceb27a0	-0.028705418
8	0xbce59121	-0.028023304
9	0xbbc14961	-0.00589864
10	0xbd421638	-0.04738447
11	0x3d530ebb	0.05152772
12	0x3d7024a2	0.058628686
13	0xbca5a08f	-0.020218162
14	0x3b0f31ba	0.0021849708
15	0x3c0a1440	0.00842768
16	0xbcc86f78	-0.024467215
17	0xbb8c3b93	-0.0042795627
18	0x3c77828b	0.015106807
19	0x3cc51701	0.02405882
20	0xbd4fafed	-0.050704885
21	0x3cf0594d	0.029339457
22	0xbca88d08	-0.020575061
23	0x3d3e97a7	0.046531346
24	0x3c8a02f8	0.016847119
25	0xbd46e1e2	-0.048555262
26	0x3d40493f	0.046944853
27	0x3d8647d9	0.065566726
28	0xbce2e017	-0.027694745
29	0xbd20c705	-0.0392523
30	0xbc3d8622	-0.011567624
31	0x3aa2b3ce	0.0012413205
32	0x3cc0448f	0.023470191
33	0x3cf98a75	0.03046153
34	0xbd722333	-0.0591156
35	0xbd382ca3	-0.044964444
36	0x3d1e29ed	0.038614202
37	0x3c707fd7	0.014678917
38	0x3d205d38	0.0391514
39	0x3c51e838	0.012811713
40	0xbd7e530e	-0.062090926
41	0xbc7f3759	-0.015577161
42	0xbd61b0fd	-0.05510043
43	0x3d330b50	0.04371196
44	0x3d4f7b2b	0.05065457
45	0xbca176a5	-0.019709894
46	0xbd23eb48	-0.040019304
47	0xbce43589	-0.027857559
48	0xbc8a1e0a	-0.016860027
49	0x3b3558e0	0.0027671382
50	0x3c889ce1	0.016676368
51	0xbd1e34f5	-0.038624723
52	0xbcccaa3f	-0.024983523
53	0xba519742	-0.00079952565
54	0xbc8297fa	-0.015941609
55	0xbc0a34ac	-0.0084354095
56	0xbcf6d4d2	-0.030130778
57	0xbd23542e	-0.039875202
58	0xbd4b8b26	-0.04969325
59	0x3c9d8f7c	0.019233458
60	0xbcbb5466	-0.022867393
61	0x3b99a5f2	0.0046889717
62	0xbd353cca	-0.044247426
63	0xbd66bb0a	-0.056330718
64	0xbcbbde94	-0.022933282
65	0x3cc8fd1c	0.024534754
66	0xbcc5fa49	-0.024167197
67	0x3d4bc0d8	0.049744457
68	0x3d02e83a	0.03195975
69	0xbd2aac3d	-0.041668165
70	0x3b880be0	0.0041518062
71	0xbca50cc2	-0.020147685
72	0xbcb03514	-0.021509685
73	0xbd7dca2f	-0.061960395
74	0x3c83a54a	0.016070027
75	0xbbe450b0	-0.0069676265
76	0x3c975f34	0.018478014
77	0x3d5c7717	0.05382451
78	0x3d2ebac8	0.042658597
79	0xbd0ddd20	-0.03463471
80	0x3c2c4c70	0.010516271
81	0x3ad4fec1	0.0016250239
82	0xbd7baa76	-0.06144186
83	0xba54be80	-0.0008115545
84	0x3c6f1f38	0.0145948455
85	0x3d7bf3b4	0.06151171
86	0xbcb5fb13	-0.022214448
87	0xbd06bdd4	-0.032895878
88	0xbc1875bc	-0.009305414
89	0xbca8cafb	-0.020604601
90	0x3b7de848	0.0038743187
91	0x3d0ea638	0.034826487
92	0x3d23ade4	0.039960757
93	0xbd43d018	-0.047805876
94	0x3d0dd16d	0.034623552
95	0xbc2a2730	-0.01038532
96	0x3ca86de0	0.020560205
97	0x3ca64464	0.020296283
98	0x3c8c0bd6	0.017095488
99	0x3c4cd968	0.012503006
100	0xbd49d1d7	-0.049272384
101	0xbd42f173	-0.047593545
102	0xbd753c37	-0.05987188
103	0xbc4632e4	-0.012097094
104	0xbcfbd396	-0.03074054
105	0xbd124885	-0.03571369
106	0xbd58e757	-0.052954998
107	0x3d214686	0.039373897
108	0xbbd50390	-0.006500669
109	0x3c4450d9	0.011982166
110	0xbb65f3f9	-0.0035088046
111	0xbcd14704	-0.025546558
112	0xbd43247e	-0.047642224
113	0x3d0481e9	0.032350454
114	0xbc30a970	-0.010782585
115	0x3d1e332c	0.03862302
116	0xbcff28db	-0.031147411
117	0xbd72bbcf	-0.05926114
118	0x3d7c1559	0.061543796
119	0xbaaeaee0	-0.0013327263
120	0x3d2913ac	0.041278526
121	0x3d0e47f4	0.03473659
122	0x3caccddb	0.021094253
123	0xbc11d1d0	-0.008900121
124	0xbd5c956c	-0.053853437
125	0x3d12be59	0.03582606
126	0xbd1a9b81	-0.037745956
127	0x3cce5244	0.025185712
128	0x3d10621e	0.03524982
129	0xba8a4c80	-0.0010551363
130	0x3d01c91c	0.031685933
131	0x3d0a8342	0.033816583
132	0xbd1eec2c	-0.03879945
133	0x3ca36f50	0.019950539
134	0x3c466930	0.01211004
135	0xbc8739e8	-0.016507104
136	0xbd2028bd	-0.03910135
137	0xbc0023c4	-0.007821027
138	0xbd5bf6cb	-0.053702157
139	0x3bb7f480	0.0056138635
140	0x3d2f8854	0.042854622
141	0xbd0742bc	-0.033022627
142	0xbcd49936	-0.025951963
143	0x3c1c2930	0.009531304
144	0xbc3980e8	-0.011322238
145	0xbbbbba10	-0.0057289675
146	0xbd5485d9	-0.05188546
147	0xbd3c65a7	-0.04599538
148	0x3a5d9a00	0.0008453429
149	0xbc016818	-0.007898353
150	0xbd07d4cc	-0.033161923
151	0xbcefaf53	-0.029258406
152	0xbb37ec30	-0.0028064363
153	0x3b6059c0	0.0034233183
154	0xbc96b92c	-0.018398844
155	0xbb9ae2d8	-0.004726749
156	0x3c347ff8	0.011016838
157	0x3d6160d6	0.05502399
158	0xbd52225f	-0.05130231
159	0x3cdf7f4c	0.02728238
160	0xbc03265c	-0.008004751
161	0xbd573355	-0.05253919
162	0xbd287da5	-0.04113545
163	0x3cbc5650	0.022990376
164	0xbcccc84e	-0.024997856
165	0xbb65b340	-0.0035049468
166	0x3d4b8776	0.049689732
167	0xbcacdf0a	-0.021102447
168	0x3d15bb9c	0.03655587
169	0xbc613b90	-0.013747111
170	0x3c9ba458	0.018999264
171	0x3ce4c600	0.027926445
172	0x3bb6d5e0	0.005579695
173	0x3c829954	0.015942253
174	0xbd3e50f0	-0.046463907
175	0xbd502452	-0.050815888
176	0xbd0abc3e	-0.033870928
177	0x3d54349a	0.051807977
178	0x3c758d50	0.014987305
179	0xbd498250	-0.04919654
180	0x3d2d9268	0.042375952
181	0xbd60bf29	-0.054869805
182	0xbd4a6b0d	-0.049418498
183	0x3a05f140	0.00051094964
184	0x3ce0925c	0.02741354
185	0xbd096913	-0.033547472
186	0x3a8091a0	0.0009809025
187	0x3b69f850	0.0035700984
188	0x3cbcfbf8	0.023069367
189	0xbc00a368	-0.007851459
190	0xbcf19e12	-0.02949432
191	0x3d47197e	0.048608296
192	0x3d2f003a	0.042724825
193	0x3cf4bc84	0.029875048
194	0xbb877e58	-0.0041349344
195	0xbd37342c	-0.04472749
196	0xbd2f74a5	-0.04283585
197	0xbcd8e261	-0.026475133
198	0x3d2793e2	0.040912516
199	0x3d1158a4	0.035484925
200	0xbbbdecc8	-0.005796049
201	0x3ca187b4	0.019718029
202	0xbc872096	-0.01649503
203	0x3cf9cb00	0.030492306
204	0x3d0221d0	0.031770527
205	0xbbb4c878	-0.005517062
206	0xbc552fb4	-0.013011862
207	0xbca83696	-0.020533841
208	0xbca9a05c	-0.020706348
209	0xbd253125	-0.04033007
210	0x3d60abca	0.05485133
211	0x3d0319de	0.03200709
212	0xbc694c74	-0.014239419
213	0xbd3125b7	-0.04324886
214	0xbb4dbe80	-0.0031394064
215	0xbbcb33d8	-0.0062012486
216	0x3d5f1604	0.054464355
217	0x3c2eaab0	0.010660812
218	0xbd366446	-0.044529222
219	0x3cc84848	0.024448529
220	0xbd477160	-0.048692107
221	0xbc01fc68	-0.0079337135
222	0xbcd7cb09	-0.026341932
223	0xbcf8c683	-0.030368095
224	0x3d080fb4	0.0332181
225	0xbc81e72e	-0.015857305
226	0x3cf91370	0.030404776
227	0xbc3a31c8	-0.011364408
228	0xbc7a28d8	-0.015268527
229	0x3d3bc4fe	0.045842163
230	0xbd4bae02	-0.049726494
231	0xbd14f21c	-0.036363706
232	0xbd38b3a2	-0.045093186
233	0xbc9e70f6	-0.019340973
234	0x3c88a6b8	0.01668106
235	0xbd52d694	-0.05147417
236	0x3c10c648	0.008836336
237	0x3d310826	0.04322066
238	0xbc9cf10e	-0.019157913
239	0xbd21869d	-0.039435018
240	0xbb32f0c0	-0.0027304143
241	0xbd45855d	-0.04822289
242	0x3d21feee	0.03954976
243	0xbd0db424	-0.034595624
244	0x3a0baec0	0.0005328469
245	0xbc9f66e6	-0.019458245
246	0x3c6813c0	0.014164865
247	0x3af6c120	0.0018825866
248	0xbc9c86ac	-0.019107185
249	0xbd40be55	-0.047056515
250	0xbc008a08	-0.007845409
251	0x3caa8870	0.020817012
252	0xbced29f1	-0.028950663
253	0xbd07d7c6	-0.033164762
254	0xbaf0a5e0	-0.0018359981
255	0x38999800	7.323921e-05

conv1.bias f4 [32]
0	0xbd31ef7f	-0.043441292
1	0xbca3a106	-0.019974243
2	0xbd5a80a6	-0.053345345
3	0x3d5245c0	0.05133605
4	0xbd31e31d	-0.043429483
5	0xbc9933b8	-0.01870142
6	0x3c80003e	0.015625115
7	0xbcbba25d	-0.02290457
8	0x3a2b356e	0.0006531094
9	0x3c38e797	0.011285684
10	0xbbfd54fb	-0.0077310777
11	0x3c44ec13	0.012019175
12	0x3aa5a9ae	0.001263907
13	0xbc6818ca	-0.014166066
14	0x3d68e3e6	0.056857966
15	0xbb0a8753	-0.0021137788
16	0x3c718c67	0.014742947
17	0x3c9e9202	0.019356731
18	0x3c3e2730	0.011606023
19	0x3cba6519	0.022753285
20	0xbd203564	-0.039113417
21	0x3d231db1	0.039823238
22	0xbd1a6c2c	-0.037700817
23	0x3d15a94d	0.03653841
24	0xbd83ac81	-0.06429387
25	0x3d098adf	0.033579703
26	0x3bf4bda4	0.007468896
27	0xbd1e8f63	-0.038710963
28	0xbbb36ba7	-0.0054754796
29	0xbb26d151	-0.0025454352
30	0xbd38312a	-0.04496876
31	0xbc430f31	-0.011905477

bn1.weight f4 [32]
0	0x3f7eff70	0.99608517
1	0x3f7eccdb	0.99531335
2	0x3f810424	1.0079389
3	0x3f7c1b6f	0.9847936
4	0x3f7e1a82	0.992592
5	0x3f79db64	0.9760039
6	0x3f7cb482	0.98712933
7	0x3f7d46ce	0.98936164
8	0x3f806b0b	1.0032667
9	0x3f81dccb	1.0145506
10	0x3f7bfd35	0.9843324
11	0x3f816eca	1.0111935
12	0x3f7cd935	0.9876893
13	0x3f7f0007	0.99609417
14	0x3f80a0b5	1.0049044
15	0x3f82ba40	1.0213089
16	0x3f810869	1.0080692
17	0x3f7e16f3	0.9925377
18	0x3f7eea41	0.99576193
19	0x3f7d00d5	0.98829395
20	0x3f7c9d49	0.986775
21	0x3f8184d8	1.0118666
22	0x3f80d72d	1.0065666
23	0x3f828581	1.0196992
24	0x3f7cd2c2	0.9875909
25	0x3f82c3c0	1.0215988
26	0x3f800ca7	1.0003861
27	0x3f819a44	1.0125203
28	0x3f800336	1.000098
29	0x3f7f722c	0.9978359
30	0x3f80c20c	1.0059218
31	0x3f826630	1.0187435

bn1.bias f4 [32]
0	0x3bebc188	0.0071947016
1	0xb796c2f4	-1.7972176e-05
2	0x3c3af1da	0.011410201
3	0xbc928df8	-0.017889962
4	0xbb9c3ce1	-0.0047679995
5	0xbc18c9cf	-0.009325459
6	0xbc88156f	-0.016611783
7	0xbb860483	-0.0040898933
8	0xbc8ac0fc	-0.016937725
9	0x3c7b7bcf	0.0153493425
10	0xbbf6b2a7	-0.0075286212
11	0x3c1ded59	0.009639108
12	0xbc47bbf6	-0.0121908095
13	0xbc381ff8	-0.011238091
14	0xba3bf17d	-0.00071694684
15	0x3cb841b1	0.022492262
16	0x3b41fbfc	0.0029599657
17	0x3af1ea2c	0.001845663
18	0xb9ad0969	-0.00033004142
19	0xbadae088	-0.0016698996
20	0x3b554fa6	0.0032548695
21	0x3bcbf70e	0.0062245196
22	0xbbf5458a	-0.0074850963
23	0x3c8db3bb	0.017297616
24	0xbc38a276	-0.011269202
25	0x3c62c70d	0.013841403
26	0x3c88cadd	0.016698295
27	0x3bc9a461	0.0061536287
28	0xbb935de0	-0.0044972748
29	0xbaf3036b	-0.0018540447
30	0xbc2826e4	-0.0102631785
31	0x3c6949bf	0.014238774

bn1.running_mean f4 [32]
0	0xbd6b9f86	-0.05752518
1	0xbcda68f0	-0.026661366
2	0xbcfdaf8c	-0.030967496
3	0xbb7aacb6	-0.0038249916
4	0xbd2df642	-0.042471178
5	0x3bc94c95	0.0061431625
6	0xbc79abd7	-0.015238724
7	0xbcbb2932	-0.022846792
8	0xbb659934	-0.0035033943
9	0x3c76f770	0.015073642
10	0x3ce95823	0.02848441
11	0x3ce9abf9	0.028524386
12	0xbbf57100	-0.0074902773
13	0xbb1025d5	-0.0021995206
14	0x3d3e707d	0.046493996
15	0x3b654675	0.0034984623
16	0xbc3eba8a	-0.011641154
17	0x3c9e10cc	0.019295119
18	0xbbe4d455	-0.0069833198
19	0x3d581052	0.05274994
20	0xbd92eebe	-0.07174443
21	0x3c68c436	0.014206937
22	0xbd88f14a	-0.06686647
23	0xbc27f4b1	-0.01025121
24	0xbdcd498c	-0.100237936
25	0x3cea4d17	0.028601212
26	0x3cd38149	0.025818484
27	0xbd3fd4a3	-0.046833646
28	0xbc12b4e1	-0.008954258
29	0xbd197e89	-0.03747419
30	0xbd58ca1f	-0.052927133
31	0xbd8299bc	-0.06376979

bn1.running_var f4 [32]
0	0x3a88b627	0.0010430262
1	0x3a828732	0.0009958504
2	0x3b4dfecc	0.0031432388
3	0x3c7b841d	0.0153513225
4	0x3a05a0a1	0.0005097483
5	0x3b873d78	0.0041272007
6	0x3b94b143	0.004537733
7	0x3a2c02c8	0.0006561694
8	0x3a3a179f	0.0007098857
9	0x3a1df466	0.0006025493
10	0x3c125142	0.008930506
11	0x3ae66505	0.0017577714
12	0x39e98c0d	0.0004454557
13	0x3af9414d	0.0019016654
14	0x3a9c650d	0.0011931971
15	0x3ae28aab	0.0017283758
16	0x3b21838a	0.0024645054
17	0x3a127d0d	0.0005588092
18	0x3b1f8839	0.002434267
19	0x3bdb0639	0.0066840914
20	0x3bf6565f	0.0075176205
21	0x3b5b3cb6	0.0033452935
22	0x3bb904e3	0.0056463345
23	0x3c3fe1d6	0.011711558
24	0x3c0c8054	0.008575518
25	0x3a08293a	0.00051941315
26	0x3b2c0659	0.00262489
27	0x3a29cc2c	0.00064772624
28	0x3a5d8b9a	0.0008451283
29	0x3bea0bbe	0.007142513
30	0x3a3df724	0.00072466047
31	0x3c44fb8f	0.012022867

conv2.weight f4 [64, 32, 4, 4]
0	0xbcf17b87	-0.029477848
1	0xbcbbc19f	-0.022919474
2	0xbd0f76b8	-0.03502533
3	0x3d3d6e92	0.046248026
4	0xbc0312e0	-0.008000106
5	0x3cb264af	0.021776525
6	0xbd15ed1e	-0.036603086
7	0x3c64427f	0.0139318695
8	0xbd183d58	-0.037167877
9	0x3ceb4d35	0.028723339
10	0x3d04b966	0.032403372
11	0x3caed88d	0.021343494
12	0xbd5d0bc9	-0.053966317
13	0xbc932174	-0.017960288
14	0x3c967632	0.018366907
15	0x3c5d1b24	0.01349524
16	0x3d6d12b8	0.05787918
17	0x3ca3a006	0.019973766
18	0xbd2dddfb	-0.042448025
19	0x3a85b2fe	0.0010200439
20	0x3cb5ff4f	0.022216467
21	0xbbbfeba0	-0.005856946
22	0x3bc61ab8	0.0060456656
23	0x3d0367e5	0.032081503
24	0x3ba66776	0.0050782515
25	0xbc1115f4	-0.008855332
26	0x3b4bafdb	0.003108016
27	0x3ccfbfbd	0.025359983
28	0x3d098c8b	0.033581298
29	0x3d0b3c82	0.03399325
30	0x3d2501a1	0.040284757
31	0x3d0df78c	0.034659907
32	0xbc1add6a	-0.009452203
33	0x3c91a489	0.017778652
34	0x3c432d8e	0.011912717
35	0xbd0e06fe	-0.034674637
36	0xbd310ed9	-0.04322705
37	0xbccf83e7	-0.02533145
38	0xbd66d0a2	-0.05635131
39	0x3cc178c2	0.023617152
40	0xbd11e7a6	-0.035621308
41	0xbc189abd	-0.009314236
42	0xbd1b3dc2	-0.037900694
43	0x3cd963d6	0.026536863
44	0xbc929428	-0.017892912
45	0x3c988770	0.01861927
46	0xbd4b9554	-0.049702957
47	0x3b093d75	0.0020941172
48	0xbbf14dba	-0.007364002
49	0xbcd88877	-0.026432259
50	0xbd402e0f	-0.046918925
51	0xbcdd0378	-0.026979193
52	0xbd01090d	-0.031502772
53	0x3d463929	0.048394356
54	0x3c8fa095	0.017532626
55	0xbcce4c29	-0.0251828
56	0xbc603f35	-0.013686945
57	0xbcd9129c	-0.026498131
58	0x3aaf4df5	0.0013374673
59	0x3d329c70	0.04360622
60	0xbb238d9a	-0.0024956227
61	0xba749ba5	-0.0009331054
62	0xbce424b3	-0.02784953
63	0x3c59a810	0.013284698
64	0x3b9ba195	0.0047494867
65	0xbc884c83	-0.016638046
66	0x3cc942b7	0.024567945
67	0x3ccae418	0.024766967
68	0x3ce6d604	0.028178222
69	0xbd3471dd	-0.0440539
70	0x3d33b2f8	0.04387185
71	0xbb9ec3f0	-0.004845135
72	0x3c7de14c	0.0154956095
73	0xbb02331b	-0.0019866887
74	0xbb9610a4	-0.0045796204
75	0xbd0e17f4	-0.034690812
76	0xbd36debc	-0.04464601
77	0x3a1d3bf6	0.00059980096
78	0x3ca5e3e4	0.020250268
79	0x3b12feba	0.002242966
80	0xbcf38422	-0.029726092
81	0x3c5c48d5	0.013445099
82	0xbcaa7a12	-0.02081016
83	0xbccce5d2	-0.02501193
84	0x3ce974a1	0.028497996
85	0xbd0623ff	-0.032749172
86	0xbd34140e	-0.04396444
87	0xbbcc7a29	-0.0062401486
88	0xbca2d062	-0.019874755
89	0x3cfcb245	0.030846724
90	0xbbdacfb6	-0.006677593
91	0xbcd37b3a	-0.025815595
92	0xbd559968	-0.052148253
93	0x3ca7b059	0.020469831
94	0xbc2c97f3	-0.010534274
95	0x3ca5ec01	0.020254137
96	0x3ceb4906	0.028721344
97	0x3b9a22c0	0.0047038496
98	0xbc20facc	-0.00982542
99	0xbceda707	-0.029010309
100	0xbc6a8f49	-0.014316388
101	0xbd82138a	-0.06351383
102	0x3b5a1e2f	0.003328215
103	0xbc499c74	-0.012305368
104	0xbd6f518f	-0.05842739
105	0x3d5c7c48	0.05382946
106	0xbd35a9fb	-0.04435156
107	0x3d4aeeb0	0.049544036
108	0xbb4b6223	-0.0031033836
109	0xbc622b67	-0.013804293
110	0xbd1acb81	-0.037791733
111	0xbb8cf567	-0.004301715
112	0x3d00d79e	0.03145563
113	0x3cebb2bd	0.028771752
114	0xbc8db944	-0.017300256
115	0xbd6841f4	-0.056703523
116	0x3c22934b	0.009922813
117	0xbc010351	-0.007874326
118	0x3cb65d53	0.022261297
119	0x3bde4f2f	0.0067843418
120	0xbd51a70a	-0.05118469
121	0x3a6558fb	0.0008748916
122	0x3cc2cee3	0.023780292
123	0xbc50b8b1	-0.012739346
124	0xbd567f8e	-0.05236774
125	0x3cbae323	0.022813385
126	0xbcad8526	-0.021181654
127	0x3c9cf55d	0.019159967
128	0x39aecb72	0.00033339445
129	0x3c48b161	0.012249322
130	0xbce3935b	-0.027780226
131	0x3cedb469	0.02901669
132	0x3cc9f7a9	0.024654226
133	0x3cddee79	0.027091252
134	0xbc660233	-0.01403861
135	0xbca52525	-0.020159313
136	0x3c342603	0.010995391
137	0xbcfc12c5	-0.030770669
138	0xbc91e48c	-0.017809175
139	0xbcf69d15	-0.0301042
140	0x3cbe5d12	0.023237739
141	0xbc46017c	-0.012085315
142	0xb992b8c0	-0.0002798494
143	0xbd217bca	-0.039424695
144	0x3cf54949	0.029942172
145	0x3c4ce276	0.012505164
146	0x3d4ce298	0.050020784
147	0xbcf09e2d	-0.0293723
148	0xbd49c413	-0.049259257
149	0xbd59166c	-0.0529999
150	0xbb83001e	-0.0039978167
151	0xbd236d03	-0.039898884
152	0xbd0431c0	-0.032274008
153	0x3c4112fc	0.011784311
154	0x3cd84069	0.0263979
155	0xbd098cd1	-0.03358156
156	0xbd2b94d3	-0.041889977
157	0xbd4b5bb5	-0.049648006
158	0xbc8207ef	-0.015872924
159	0xbc3bead1	-0.011469559
160	0x3cdaae73	0.026694512
161	0x3cd0ee7b	0.025504341
162	0xbc6e211b	-0.01453426
163	0x3d2104ae	0.039311104
164	0x3cab1d47	0.020887984
165	0xbd4a76ee	-0.049429826
166	0x3c3aa1cd	0.011391115
167	0x3ce7c9b2	0.028294418
168	0x3ccaf6cf	0.02477589
169	0xbc6f8513	-0.01461913
170	0xbce9db30	-0.0285469
171	0x3cd81ebd	0.026381845
172	0x3c78f6d0	0.015195563
173	0xb9f366df	-0.00046425217
174	0x3cb691c2	0.0222863
175	0x3d1abd16	0.037777983
176	0xbd2942be	-0.041323416
177	0xbc14c49b	-0.0090800775
178	0xbd12803d	-0.03576683
179	0xbca48851	-0.020084532
180	0x3cdc9a84	0.026929148
181	0xbcec7651	-0.028865011
182	0x3c926ca9	0.017874079
183	0xbca2160a	-0.0197859
184	0xbc508066	-0.012725925
185	0xbd27fb33	-0.041011047
186	0x3ce15c47	0.027509822
187	0xbcde59b9	-0.027142392
188	0xbc967e4b	-0.018370768
189	0xbc8ca264	-0.017167278
190	0xbcdce40b	-0.026964208
191	0x3c00de8a	0.007865557
192	0x3c22975c	0.009923782
193	0xbd0ee56d	-0.034886766
194	0x3c324744	0.010881249
195	0xbd0a856c	-0.033818647
196	0x3cf1ca62	0.029515449
197	0x3d1469ed	0.03623383
198	0x3d2b9000	0.041885376
199	0xbd501b54	-0.050807312
200	0xbc46caad	-0.012133283
201	0xbcef5ed3	-0.02922002
202	0x3c18be7a	0.009322757
203	0xbb97770d	-0.0046223463
204	0xbca2c887	-0.01987101
205	0xbc5b74af	-0.013394519
206	0xbd32e0b8	-0.04367134
207	0x3d1d377b	0.03838299
208	0x3d0524ef	0.032505926
209	0xbc3d472b	-0.011552612
210	0xbca39ff0	-0.019973725
211	0xbce5e27f	-0.028062103
212	0x3d1a3c88	0.037655383
213	0x3bf783c8	0.0075535513
214	0x3a823b56	0.0009935896
215	0x3d087fe8	0.033325106
216	0xbc9d496b	-0.019200047
217	0x3ca71965	0.020397851
218	0xbb6f9d98	-0.003656244
219	0xbd0ce3d3	-0.034396958
220	0xbd115040	-0.035476923
221	0xbccd1338	-0.025033578
222	0x3cfdd774	0.030986525
223	0x3d327f3b	0.043578368
224	0xbceaa5db	-0.02864354
225	0x3bb32a48	0.005467687
226	0x3ce303d5	0.027711788
227	0xbc758a20	-0.014986545
228	0x3c4cc7a5	0.012498771
229	0x3cd9125c	0.026498012
230	0x3d4b75f3	0.049673032
231	0x3ce0ffee	0.027465787
232	0x3cfba806	0.030719768
233	0x3d5f61eb	0.05453674
234	0x3c7bedd3	0.015376526
235	0x3a8ba459	0.0010653838
236	0x3d19bb5f	0.037532207
237	0x3d36194f	0.04445773
238	0xbd076df7	-0.033063855
239	0x3ba5edb4	0.005063737
240	0xbd1cfd61	-0.03832758
241	0xbd3c2df0	-0.045942247
242	0x3c4c81d4	0.012482125
243	0x3ca3f74b	0.02001538
244	0xbcc3f994	-0.023922719
245	0xbd526f4c	-0.051375672
246	0xbce75b9a	-0.028241921
247	0x3b2f881d	0.002678401
248	0xbcb726e2	-0.022357408
249	0xbd354935	-0.04425927
250	0x3d08d171	0.033402864
251	0x3d2c15c5	0.04201295
252	0x3c115fa6	0.008872902
253	0x3d00e409	0.03146747
254	0x3d16d59f	0.03682482
255	0x3d1d1ea1	0.038359288

conv2.bias f4 [64]
0	0xbbaf4d3a	-0.0053497823
1	0x3ca678dd	0.020321304
2	0x3d2be13f	0.04196286
3	0x3c7edfe4	0.015556309
4	0xbc135f75	-0.008994927
5	0x3d269e4b	0.040678304
6	0x3c35e257	0.011101327
7	0x3d201999	0.03908691
8	0x3d030fc7	0.03199747
9	0xbc1eda6a	-0.009695629
10	0x3c49b35e	0.012310831
11	0xba5ff123	-0.0008542707
12	0xbd255f9f	-0.040374395
13	0x3b363bff	0.0027806757
14	0x3c84e223	0.016221112
15	0xbb00bace	-0.0019642594
16	0x3c08a12a	0.008339206
17	0xbc29f714	-0.010373849
18	0x3ca073b0	0.019586414
19	0xbd18298e	-0.037149005
20	0x3a69e75d	0.00089227204
21	0xbb1bacc1	-0.0023754092
22	0x3d25e2ab	0.04049937
23	0x3d05b15c	0.032639846
24	0xbc21c2d5	-0.009873112
25	0xbd0d6283	-0.034517776
26	0x3c87521f	0.01651865
27	0xbd09535c	-0.033526763
28	0xbd2fde95	-0.04293688
29	0xbba08667	-0.0048988345
30	0xbc451473	-0.012028801
31	0xbcb231c6	-0.02175225
32	0x3cbf271b	0.023334077
33	0x3d289e47	0.04116657
34	0xbcc11beb	-0.023572883
35	0xbc4c624a	-0.012474606
36	0xbd2e353b	-0.042531233
37	0x3c3d0373	0.011536467
38	0xbca2f35e	-0.019891437
39	0x3cd02834	0.025409795
40	0xbba652be	-0.0050757816
41	0x3ceda8ab	0.029011091
42	0xbd075cc6	-0.03304746
43	0x3d369f1a	0.044585325
44	0x3c93bcc6	0.01803435
45	0x3c52e485	0.012871866
46	0xbd1706ec	-0.036871836
47	0x3cc7687a	0.02434181
48	0xbd0a2b11	-0.033732478
49	0x3be5bf91	0.007011362
50	0xbc91e3fb	-0.017808905
51	0xbd1f37af	-0.038871463
52	0x3d251990	0.04030758
53	0x3c8973a7	0.01677878
54	0xbc21076f	-0.009828432
55	0xbc217cb6	-0.009856394
56	0x3d00167f	0.031271454
57	0x3bc2e95a	0.005948228
58	0xbc0b1c6e	-0.008490665
59	0x3bfc87f3	0.007706636
60	0x3c7fe114	0.015617628
61	0x3cbf7f73	0.023376202
62	0x3d29f844	0.04149653
63	0xbc66c362	-0.014084669

bn2.weight f4 [64]
0	0x3f7f58a3	0.99744624
1	0x3f7f898b	0.9981925
2	0x3f802e97	1.0014218
3	0x3f800fff	1.0004882
4	0x3f7e7bc7	0.9940762
5	0x3f81d2bd	1.0142437
6	0x3f80a260	1.0049553
7	0x3f80e5ed	1.0070168
8	0x3f7cf1a4	0.98806214
9	0x3f8026ff	1.0011901
10	0x3f7af9e2	0.9803754
11	0x3f7f47c7	0.997189
12	0x3f7d52a0	0.989542
13	0x3f81190c	1.0085769
14	0x3f8071bd	1.003471
15	0x3f7b7154	0.982198
16	0x3f80d8c1	1.0066148
17	0x3f7fb577	0.9988627
18	0x3f7f247d	0.9966505
19	0x3f815f2d	1.010717
20	0x3f81bbd2	1.0135443
21	0x3f7ab626	0.97934186
22	0x3f80ae83	1.0053257
23	0x3f7dcc1a	0.9913956
24	0x3f80a55e	1.0050466
25	0x3f7ec091	0.99512583
26	0x3f80185b	1.0007433
27	0x3f7f8e1a	0.99826205
28	0x3f82026a	1.0156987
29	0x3f7cbb49	0.98723274
30	0x3f7d06da	0.9883858
31	0x3f805cb8	1.0028296
32	0x3f828027	1.0195359
33	0x3f7f9468	0.99835825
34	0x3f7e04aa	0.99225867
35	0x3f81bd2a	1.0135853
36	0x3f81502b	1.010259
37	0x3f82de0d	1.0224015
38	0x3f8224a9	1.0167438
39	0x3f7af438	0.980289
40	0x3f8285c9	1.0197078
41	0x3f7cad48	0.98701906
42	0x3f7f0f32	0.9963256
43	0x3f80a77c	1.0051112
44	0x3f81a322	1.0127909
45	0x3f7cf6f4	0.9881432
46	0x3f7bd633	0.9837372
47	0x3f80b47f	1.0055083
48	0x3f7f8d23	0.9982473
49	0x3f7fcb31	0.9991942
50	0x3f7f912a	0.9983088
51	0x3f81695c	1.0110278
52	0x3f7f20b2	0.99659264
53	0x3f81564f	1.0104464
54	0x3f82e6e8	1.0226717
55	0x3f82c0f5	1.0215136
56	0x3f7d233c	0.9888189
57	0x3f824963	1.0178646
58	0x3f81462a	1.0099537
59	0x3f802fe8	1.001462
60	0x3f80c543	1.00602
61	0x3f7c3904	0.985245
62	0x3f7fd4ab	0.9993388
63	0x3f7ce466	0.9878601

bn2.bias f4 [64]
0	0xbc4e70e7	-0.01260016
1	0x3caed46e	0.021341529
2	0x3b215aad	0.0024620697
3	0x394e2342	0.00019658825
4	0xb90d8924	-0.00013497897
5	0x3b63121c	0.0034648245
6	0x3bc51fd5	0.0060157576
7	0x3c458488	0.012055524
8	0xbc2bba35	-0.010481407
9	0xbb4ccb90	-0.0031249262
10	0xbcd3067e	-0.025759932
11	0xbab801e7	-0.0014038653
12	0xbb9c2093	-0.0047646253
13	0xbc267f87	-0.010162241
14	0xbb58479e	-0.0033001672
15	0xbc80c515	-0.015718976
16	0xbc1eebfd	-0.009699819
17	0x3ca0c1e3	0.019623702
18	0x3acd2c5c	0.0015653479
19	0x3ca1e852	0.0197641
20	0xbc73006a	-0.014831642
21	0x39f495c9	0.00046650905
22	0x3b867284	0.004103007
23	0x3cc1520b	0.023598691
24	0x3c4cdc51	0.012503699
25	0xbbcba47f	-0.006214678
26	0xbc125fa3	-0.008933934
27	0xbbdc6e04	-0.006726982
28	0x3c0c1b00	0.008551359
29	0xb9c5ee09	-0.00037752118
30	0xbc7899b3	-0.0151733635
31	0xbc93a837	-0.018024547
32	0x3bc468a4	0.0059939194
33	0x3c4cf306	0.012509113
34	0x3c34dcbd	0.011038956
35	0x3cbdd7ce	0.023174193
36	0x3c9321f9	0.017960535
37	0x3c90602c	0.017623983
38	0x3c29b924	0.010359082
39	0xbcb5f506	-0.022211563
40	0x3cb3b304	0.021935947
41	0xbc217fe9	-0.009857156
42	0xbba2cdcb	-0.00496838
43	0x39d97576	0.0004147698
44	0x3ca03157	0.019554777
45	0xbc323ecb	-0.010879229
46	0xbcb64a93	-0.022252357
47	0xbadb7a78	-0.0016744873
48	0x3bf2aaa2	0.007405595
49	0x3c5c0851	0.013429717
50	0x3c6ece16	0.014575502
51	0x3c121a82	0.008917453
52	0x3b7fed8e	0.0039051506
53	0xbc20962d	-0.00980143
54	0x3cba5f75	0.022750596
55	0x3cadfbda	0.021238256
56	0x3becd94a	0.0072280513
57	0x3cae8436	0.021303277
58	0x3c6b19f8	0.014349453
59	0x3c604694	0.013688702
60	0x3ae1f49c	0.0017239037
61	0xbc30f955	-0.010801633
62	0xba91160c	-0.0011069193
63	0xbc086161	-0.008323998

bn2.running_mean f4 [64]
0	0xbe28a7ed	-0.16470309
1	0x3ab11b53	0.0013512172
2	0xbecd7182	-0.40125662
3	0xbe8ceee9	-0.27526024
4	0xbee1ba2c	-0.4408735
5	0xbdcd2032	-0.100159064
6	0x3d942816	0.07234208
7	0xbe496555	-0.19667561
8	0xbe88ad9c	-0.26694953
9	0xbdbfa26c	-0.093571514
10	0xbe3584cc	-0.17726439
11	0x3da165c3	0.07880738
12	0x3d76c8f8	0.060250252
13	0x3e388da5	0.18022783
14	0xbda92d76	-0.08260624
15	0x3f067537	0.52522606
16	0xbe0f4aae	-0.13993332
17	0xbdb0494d	-0.08607731
18	0xbe7a706a	-0.24456945
19	0x3cfca348	0.030839577
20	0xbd2fbb49	-0.04290322
21	0x3df6f962	0.12059285
22	0xbddbc19c	-0.107302874
23	0x3ede6798	0.4343841
24	0x3b955f48	0.0045584776
25	0xbd1f04c8	-0.03882292
26	0xbebb661f	-0.3660135
27	0xbe0cd6c8	-0.13753808
28	0xbe838f40	-0.2569523
29	0xbe844df6	-0.2584073
30	0x3d4e8d75	0.050427873
31	0x3e5f563b	0.21810238
32	0x3dc98f2d	0.09841762
33	0x3e0ad680	0.13558388
34	0x3e59129a	0.21198502
35	0xbe1b4f83	-0.1516705
36	0xbe4f95ca	-0.20271984
37	0x3e629eda	0.2213091
38	0x3e6168f3	0.22012691
39	0x3cf0f065	0.029411504
40	0xbeb366d3	-0.35039386
41	0x3ead6895	0.33868852
42	0x3c6e4aef	0.014544233
43	0xbe2cd310	-0.16877389
44	0xbd335a6f	-0.043787416
45	0xbe0c4455	-0.13697942
46	0xbe6d43c7	-0.23170386
47	0xbe44bd63	-0.1921287
48	0xbe3cfc37	-0.18455587
49	0xbe55a613	-0.20864134
50	0x3e9b702c	0.30359018
51	0xbf0f29d5	-0.55923206
52	0x3e48d075	0.1961077
53	0x3ae4bec9	0.0017451878
54	0xbe90ca7c	-0.28279483
55	0x3e68e0f3	0.22742061
56	0x3ed8e4e5	0.42362133
57	0x3d8b885f	0.0681312
58	0x3e9fe09d	0.31226054
59	0x3e000d48	0.12505066
60	0xbe06ff7f	-0.13183402
61	0x3e165f51	0.14684798
62	0x3c803594	0.015650548
63	0xbd9f4aca	-0.07777937

bn2.running_var f4 [64]
0	0x3f14a65c	0.58066344
1	0x3f23b07c	0.6394117
2	0x3f5e6ccf	0.8688478
3	0x3f725f56	0.9467672
4	0x3ec12504	0.37723553
5	0x3e78a430	0.24281383
6	0x3f33197d	0.6996077
7	0x3f4bebbb	0.7965657
8	0x3ee532ba	0.44765264
9	0x3e789a03	0.24277501
10	0x3e4dce94	0.20098335
11	0x3f3fd268	0.7493043
12	0x3ea0e7dd	0.31426898
13	0x3eac7dad	0.33689633
14	0x3ecbf33e	0.39834017
15	0x3f6f5dfa	0.9350277
16	0x3e6d5033	0.23175125
17	0x3f2181ef	0.6308889
18	0x3ee1309e	0.43982404
19	0x3e83201b	0.25610432
20	0x3e92c3f2	0.2866512
21	0x3f00e223	0.5034506
22	0x3e1eefed	0.15521212
23	0x3eef8457	0.46780655
24	0x3ec739db	0.38911328
25	0x3e9d19c6	0.30683726
26	0x3e9d94ac	0.3077749
27	0x3ef018ce	0.46893924
28	0x3f2ece7e	0.6828383
29	0x3ee5edcb	0.44907984
30	0x3f195621	0.5989705
31	0x3e25b928	0.16183913
32	0x3eb27250	0.3485284
33	0x3e6247c2	0.22097686
34	0x3e93d02a	0.28869754
35	0x3eae8ed8	0.34093356
36	0x3fa720ab	1.3056844
37	0x3eb897e5	0.36053386
38	0x3e30252c	0.1720168
39	0x3e9b3eda	0.3032139
40	0x3e6c6c6e	0.23088238
41	0x3f0b7fa1	0.5449162
42	0x3eb6b363	0.35683736
43	0x3e9085a5	0.28226963
44	0x3f73e25d	0.9526728
45	0x3f0c0cdc	0.5470712
46	0x3ee9a51b	0.45633778
47	0x3e89fec7	0.26952192
48	0x3e96691a	0.2937706
49	0x3f4817f8	0.78161573
50	0x3e701de3	0.23448901
51	0x3e5e3f5d	0.21703859
52	0x3e7c91ba	0.24664965
53	0x3efef23b	0.49794182
54	0x3ea9b988	0.33149362
55	0x3e83ef5b	0.2576855
56	0x3f9e00a7	1.2343949
57	0x3e9112dd	0.28334704
58	0x3f1f0257	0.62112945
59	0x3e6b805a	0.22998181
60	0x3e742e9d	0.23845907
61	0x3f8926b6	1.0714939
62	0x3e1a5c33	0.15074234
63	0x3f1c1791	0.6097346

conv3.weight f4 [64, 64, 3, 3]
0	0xbbe85215	-0.007089863
1	0x3cebb00c	0.02877047
2	0x3c68ece3	0.014216634
3	0xbc59c6e3	-0.013292047
4	0xbd1d67cd	-0.03842907
5	0xbc85e253	-0.016343271
6	0x3cc9afb4	0.024619915
7	0xbd589514	-0.052876547
8	0xbd333db3	-0.043760013
9	0xbcadb87f	-0.021206139
10	0xbbea61f6	-0.007152791
11	0x3cc2d59b	0.023783496
12	0x3bc4a5d3	0.006001213
13	0x3c6cb004	0.014446262
14	0xbd2b44c2	-0.04181362
15	0xbb3d0cf8	-0.0028846841
16	0x3bc5a7ce	0.006031967
17	0xbd000cf8	-0.031262368
18	0x3c848ea6	0.016181301
19	0x3c0cbcdd	0.00858995
20	0xbc54a1a6	-0.012977993
21	0x3cc1f29d	0.023675257
22	0xba966aab	-0.0011475881
23	0xbd4fe54e	-0.05075579
24	0x3b7b3dee	0.0038336474
25	0x3d03f15a	0.032212593
26	0x3abab924	0.001424585
27	0x3cd7d329	0.026345806
28	0xbc8effcc	-0.017455958
29	0x3cca3ae6	0.024686288
30	0x3c8d1e14	0.017226256
31	0xbb07208b	-0.0020618762
32	0x3d068a14	0.032846525
33	0xbb8b047b	-0.0042424775
34	0x3ccda78a	0.025104303
35	0x3ce13f25	0.02749593
36	0xbc95dada	-0.018292833
37	0x3d259b8a	0.040431537
38	0x3d151390	0.03639561
39	0x3cb8feaa	0.02258237
40	0x3d05ae15	0.03263672
41	0xbd034532	-0.03204841
42	0xbcb54fc6	-0.022132766
43	0x3d17697d	0.036965836
44	0x3c00ce49	0.007861682
45	0xbbe6404b	-0.0070267073
46	0x3d1cf44a	0.03831891
47	0x3d21e198	0.039521784
48	0xbd24311b	-0.040085893
49	0x3d086490	0.03329903
50	0x3d6cff20	0.057860494
51	0x3bd2ac01	0.006429196
52	0x3cbabc84	0.02279497
53	0xbc26f27e	-0.010189651
54	0xbcb8376b	-0.022487363
55	0xba56dda4	-0.0008196479
56	0x3bc2abdf	0.005940899
57	0x3bc0a2de	0.0058787903
58	0xbc00f393	-0.007870573
59	0x3d39a2c3	0.045321237
60	0xbcfaea68	-0.030629352
61	0x3becf742	0.007231624
62	0x3ab7c50d	0.0014020518
63	0x3c085e99	0.008323335
64	0xbc907eba	-0.017638553
65	0xbc82904f	-0.015937952
66	0xbca9bb14	-0.020719089
67	0x3cb34edd	0.02188819
68	0x3cfa0d87	0.030524028
69	0xbbc1a8ff	-0.0059100385
70	0xbb35caea	-0.0027739354
71	0x3d0d8691	0.03455216
72	0x3b279417	0.0025570446
73	0x3cb287ac	0.021793209
74	0x3bb8fa4b	0.0056450716
75	0x3d0b9f81	0.03408766
76	0xbcd16649	-0.025561469
77	0xbd60b70b	-0.054862063
78	0xbd3a0f97	-0.045425024
79	0xbd0b0e7c	-0.03394936
80	0x3b96aa31	0.004597925
81	0xbd3b9a02	-0.04580117
82	0x3cebb525	0.0287729
83	0xbc2c0b6a	-0.010500768
84	0xbccfd73d	-0.025371188
85	0xbc94e504	-0.01817561
86	0xbd82cb3b	-0.063864194
87	0xbd04b0cd	-0.032395173
88	0x3c4efd96	0.012633702
89	0xbc2f1bd3	-0.010687786
90	0x3c33146c	0.010930162
91	0xbccab439	-0.02474414
92	0xbbe0bccc	-0.006858444
93	0x3bb70e9f	0.0055864598
94	0x3b7a4a95	0.0038191427
95	0xbb2d1143	-0.0026407994
96	0x3d17e591	0.037084166
97	0xbc5ed31a	-0.013600135
98	0xbd4c3aec	-0.04986088
99	0xbd0c40dc	-0.034241542
100	0x3ccbea84	0.0248921
101	0x3d3ac855	0.045601208
102	0x3c4d4201	0.012527944
103	0xbc979543	-0.01850379
104	0x3c4db1a3	0.012554559
105	0x3ca24ed4	0.019812979
106	0x3cc5b50e	0.024134185
107	0xbbf5ce89	-0.0075014275
108	0xbbcf089d	-0.0063181655
109	0x3caf933b	0.02143251
110	0x3bb6269e	0.0055588027
111	0x3bd91f68	0.0066260584
112	0xbcd6cc3f	-0.026220439
113	0x3c2f3f9e	0.01069632
114	0xbd140a34	-0.036142543
115	0xbd1460b5	-0.03622504
116	0xbc75f4d9	-0.0150119895
117	0xbce5beb1	-0.02804503
118	0x3d0f06fa	0.034918763
119	0x3cfb7a74	0.030698039
120	0x3bdd9ac0	0.0067628324
121	0xbc7984a9	-0.015229383
122	0x3bdf8c6c	0.0068221595
123	0xbc73020c	-0.014832031
124	0x3d0d362b	0.034475487
125	0xbc9dd8f0	-0.019268483
126	0xbd681fd5	-0.056670982
127	0xbd13211a	-0.03592024
128	0x3d549bfd	0.051906575
129	0xbd005d80	-0.03133917
130	0xbd21ffac	-0.03955047
131	0xbcf2f455	-0.029657522
132	0xbc868829	-0.016422348
133	0x3d07bd5c	0.03313957
134	0xbcb61ae0	-0.022229612
135	0xbd3b9a27	-0.045801308
136	0xbbf941bf	-0.0076067145
137	0x3d2b3133	0.041794967
138	0x3c81bf2a	0.015838224
139	0xbcee84ec	-0.029116116
140	0x3d41558b	0.04720072
141	0x3b6b8ab7	0.0035940835
142	0xba3ac6c9	-0.0007124958
143	0xbbbd7520	-0.0057817847
144	0xbc11cc02	-0.008898737
145	0x3aa44afa	0.0012534552
146	0xbcce5402	-0.025186542
147	0xbd00f140	-0.031480074
148	0x3cc184b5	0.02362285
149	0xbcdad482	-0.02671266
150	0x3c45acbc	0.012065109
151	0xbc723ae3	-0.0147845475
152	0xbc924d48	-0.017859116
153	0xbd0f4502	-0.03497792
154	0x3cd03134	0.025414087
155	0xbcc2294b	-0.02370133
156	0xbc6cc21a	-0.014450574
157	0xbc252eb7	-0.0100819385
158	0xbbc78431	-0.0060887565
159	0xbcd85857	-0.026409311
160	0xbce66b8f	-0.02812746
161	0xbcba6a93	-0.022755897
162	0x3be65a90	0.007029839
163	0x3c8ecf83	0.017432934
164	0x3d1ea98c	0.03873591
165	0x3d34d6c4	0.04415013
166	0x3d2e1ade	0.04250609
167	0x3d3566f9	0.044287656
168	0xbbe721ec	-0.0070536043
169	0x3d2440de	0.040100925
170	0x3b8121c4	0.0039407928
171	0x3bf2374f	0.007391847
172	0x3c8c66f0	0.017138928
173	0xbcf31375	-0.029672364
174	0xbcbf517c	-0.023354284
175	0xbd4277f4	-0.047477677
176	0xbd1146bb	-0.035467844
177	0x3ae5ff4e	0.00175474
178	0xbc8fef20	-0.017570078
179	0xbd4107c4	-0.047126547
180	0xbd777d9e	-0.060422532
181	0x3c8fd6b5	0.017558435
182	0x3ab24140	0.0013599768
183	0x3ca729c5	0.02040566
184	0xbd35d837	-0.04439565
185	0xbcba5a23	-0.022748059
186	0xbc89ca03	-0.01681996
187	0x3b222e8f	0.002474699
188	0xbcc1f31e	-0.023675498
189	0x3ca15b6e	0.019696917
190	0xbc3732a1	-0.011181504
191	0x3d528639	0.051397536
192	0x3cf2b8d6	0.029629152
193	0xbd1c193a	-0.038109995
194	0x3cd05495	0.025430957
195	0xbc1e4d3c	-0.009661969
196	0xbc17f86f	-0.00927554
197	0x3d05e4cd	0.032688905
198	0xbd00d16c	-0.03144972
199	0x3b24a033	0.00251199
200	0xbc2b386b	-0.010450463
201	0xbd70796d	-0.05870955
202	0x3ca69491	0.020334514
203	0xbca34afe	-0.01993322
204	0x3c5909f9	0.013247007
205	0x3b32921a	0.0027247728
206	0xbc453b0a	-0.012038002
207	0xbc78f721	-0.015195639
208	0xbd2f411b	-0.0427867
209	0xbaa68158	-0.0012703342
210	0xbc8ac6ab	-0.016940435
211	0x3cab850d	0.020937467
212	0xbcdf4d54	-0.027258553
213	0xbd343622	-0.043996938
214	0x3d20a263	0.039217364
215	0xbd0e2b39	-0.03470919
216	0xbcbe1105	-0.023201475
217	0x3d09b5f4	0.03362079
218	0x3cd4e685	0.025988827
219	0xbd124a10	-0.035715163
220	0xbcc04e73	-0.023474908
221	0x3b9b407d	0.004737912
222	0xbd1640a7	-0.03668275
223	0xbb0b85ac	-0.0021289391
224	0xbc9382d8	-0.018006727
225	0xbc717da7	-0.0147394305
226	0x39cf8d2c	0.00039587298
227	0x3c663a65	0.014052008
228	0x3c848804	0.016178139
229	0x3c9a0587	0.018801464
230	0x3d0a5376	0.033771
231	0x3ce40b2e	0.027837362
232	0x3d72dfa6	0.05929532
233	0xbd1e887d	-0.038704384
234	0xbcc942ff	-0.024568079
235	0xbcd6ffb6	-0.02624498
236	0xbbb8562c	-0.005625507
237	0x3d378787	0.044806983
238	0x3c8444cc	0.016146086
239	0x3c71eb6a	0.0147656
240	0x3c44e264	0.012016866
241	0xb8b37c35	-8.5585205e-05
242	0xbc9378de	-0.01800197
243	0x3d31c024	0.04339613
244	0xbc9a1e6e	-0.018813338
245	0xbc1bdd9d	-0.009513286
246	0xbc430159	-0.011902177
247	0x3c4bd6cc	0.012441348
248	0xbc5f08a9	-0.013612905
249	0x3c92a3ee	0.017900433
250	0x3ce3caa2	0.027806584
251	0xbc266675	-0.010156264
252	0x3a96379e	0.0011460667
253	0x3c63a165	0.01389346
254	0xbd1a8c82	-0.037731655
255	0xbd6266d5	-0.05527385

conv3.bias f4 [64]
0	0x3aad71d4	0.0013232776
1	0xbd23e0a2	-0.04000915
2	0x3ce90181	0.0284431
3	0xbd279ecc	-0.040922925
4	0xbd02cc1f	-0.031932946
5	0xbd14043c	-0.03613685
6	0x3d057aa8	0.032587677
7	0xbc30bfcd	-0.010787916
8	0x3c4553f1	0.012043939
9	0x3bb22a20	0.0054371506
10	0x3d2678b6	0.040642463
11	0xbce1bb89	-0.027555244
12	0x3cf8e390	0.030381948
13	0x3b24390b	0.0025058414
14	0xbcb529ef	-0.022114722
15	0x3c804302	0.015656952
16	0x3cff0814	0.031131782
17	0x3d2be52a	0.041966595
18	0x3d01dd34	0.031705096
19	0xbc3363ae	-0.010949058
20	0xbbb97f63	-0.0056609376
21	0x3ce27d18	0.02764754
22	0x3b172dfa	0.0023068176
23	0xbd09510d	-0.03352456
24	0x3d1c5b1b	0.038172822
25	0xbcc49f48	-0.024001732
26	0x3cb2f088	0.02184321
27	0x3d2796ce	0.040915303
28	0xbd17bf52	-0.03704769
29	0x3bc6f100	0.00607121
30	0x3c1cb276	0.009564033
31	0x3bc7f7c0	0.006102532
32	0xbd116da5	-0.035504956
33	0x3d1e4016	0.038635336
34	0xbbe2e5d9	-0.0069243726
35	0xbbfb2fd6	-0.0076656146
36	0xbd216bf1	-0.03940958
37	0xbcdee9f8	-0.027211174
38	0x3cb92a10	0.022603065
39	0xbd073cb1	-0.033016864
40	0x3c735e9e	0.014854101
41	0xba134aed	-0.000561877
42	0x3ceca9d8	0.028889582
43	0xbd27a264	-0.040926352
44	0xbcd86aa0	-0.02641803
45	0xbcda5820	-0.02665335
46	0x3cb561ed	0.022141421
47	0xbbf40712	-0.007447132
48	0xbbeeb5f1	-0.0072848727
49	0xbc4527df	-0.012033432
50	0x3c0c5223	0.008564505
51	0x3c578179	0.013153427
52	0x3c98e690	0.018664628
53	0xbb6d3c1f	-0.0036199165
54	0x3d209be7	0.03921118
55	0xbd13a989	-0.036050353
56	0xbcb2ddc8	-0.02183427
57	0x3c993a0d	0.018704439
58	0x3c7e67ae	0.015527649
59	0xbc5f092e	-0.013613028
60	0xbd028fed	-0.03187554
61	0xbb99bfd8	-0.004692059
62	0xbc4f27cc	-0.012643766
63	0x3d150acd	0.036387254

bn3.weight f4 [64]
0	0x3f826033	1.0185608
1	0x3f828730	1.0197506
2	0x3f82b859	1.0212508
3	0x3f83ab77	1.0286702
4	0x3f824e72	1.018019
5	0x3f81fba2	1.0154917
6	0x3f83b47c	1.0289454
7	0x3f839e8b	1.0282758
8	0x3f826aba	1.018882
9	0x3f83aa6e	1.0286386
10	0x3f83c65f	1.0294913
11	0x3f828a39	1.0198432
12	0x3f827c81	1.0194246
13	0x3f829ffc	1.0205073
14	0x3f82a80f	1.0207537
15	0x3f838df5	1.0277697
16	0x3f839f52	1.0282996
17	0x3f82ae99	1.0209533
18	0x3f83b46b	1.0289434
19	0x3f8296f9	1.0202323
20	0x3f8386c1	1.0275499
21	0x3f82b3f8	1.0211172
22	0x3f829dc5	1.0204397
23	0x3f823aeb	1.017423
24	0x3f83ac7e	1.0287015
25	0x3f83c93d	1.0295788
26	0x3f83bf1d	1.0292698
27	0x3f827a25	1.0193526
28	0x3f82a077	1.020522
29	0x3f83bd21	1.0292093
30	0x3f82c125	1.0215193
31	0x3f82bec1	1.0214463
32	0x3f839d01	1.0282289
33	0x3f82247b	1.0167383
34	0x3f838c86	1.0277259
35	0x3f81f368	1.0152407
36	0x3f828232	1.0195982
37	0x3f83ab5c	1.028667
38	0x3f839b5f	1.028179
39	0x3f839a3f	1.0281447
40	0x3f82a8ca	1.020776
41	0x3f828d47	1.0199364
42	0x3f82b6df	1.0212058
43	0x3f839ac4	1.0281606
44	0x3f83904f	1.0278414
45	0x3f839696	1.028033
46	0x3f826711	1.0187703
47	0x3f83af0d	1.0287796
48	0x3f83791a	1.0271332
49	0x3f829f3a	1.0204842
50	0x3f8276aa	1.0192463
51	0x3f823c8d	1.0174729
52	0x3f83b33e	1.0289075
53	0x3f827436	1.0191715
54	0x3f82a951	1.0207921
55	0x3f83bb3a	1.0291512
56	0x3f83a3a1	1.028431
57	0x3f82a5ef	1.0206889
58	0x3f8241fb	1.0176386
59	0x3f829c4f	1.0203952
60	0x3f82b8e3	1.0212673
61	0x3f83a7f4	1.028563
62	0x3f83a47c	1.0284572
63	0x3f82aedb	1.0209612

bn3.bias f4 [64]
0	0x3c93fb0b	0.018064043
1	0x3ca95eb6	0.020675045
2	0x3caefcbf	0.021360753
3	0x3cf106bc	0.029422157
4	0x3c8b2477	0.016985161
5	0x3c680b34	0.014162827
6	0x3ceed974	0.029156424
7	0x3cece3cc	0.028917216
8	0x3c97925c	0.018502407
9	0x3cea0f1a	0.028571654
10	0x3cf2b2a7	0.029626204
11	0x3cab28b2	0.020893428
12	0x3ca44dd2	0.020056639
13	0x3ca9a0f9	0.02070664
14	0x3ce66633	0.028124904
15	0x3cac44b9	0.021028863
16	0x3ce3f49d	0.027826602
17	0x3caf78be	0.021419879
18	0x3ce8eaea	0.028432328
19	0x3c8d151c	0.01722198
20	0x3ca99572	0.020701144
21	0x3ca48610	0.020083457
22	0x3cb0677f	0.021533726
23	0x3c842d68	0.016134933
24	0x3cb05233	0.02152357
25	0x3cf2e6e9	0.029651122
26	0x3cf23f97	0.029571338
27	0x3ca0fafe	0.019650932
28	0x3c9abc3e	0.018888589
29	0x3cf421f5	0.029801348
30	0x3ca3682c	0.019947134
31	0x3ce22070	0.027603358
32	0x3ce982af	0.028504698
33	0x3c762cbd	0.015025315
34	0x3caa3306	0.020776283
35	0x3c892937	0.016743286
36	0x3cabe8dd	0.020985061
37	0x3cf15315	0.029458562
38	0x3ceb4d71	0.02872345
39	0x3ce68d12	0.02814344
40	0x3ce4f91c	0.027950816
41	0x3ca58c83	0.020208603
42	0x3ce1a5b7	0.02754484
43	0x3ce990d6	0.028511446
44	0x3cacc2c3	0.021088963
45	0x3ca33c89	0.019926326
46	0x3c8a0608	0.016848579
47	0x3cec6b3e	0.02885973
48	0x3ca1beac	0.01974424
49	0x3ca5e5bb	0.020251146
50	0x3cae50df	0.021278797
51	0x3c9f956b	0.019480428
52	0x3cf47df0	0.029845208
53	0x3c9b80d4	0.018982328
54	0x3ce59bce	0.028028395
55	0x3cecb458	0.028894588
56	0x3cedaaf4	0.02901218
57	0x3cada6b6	0.021197658
58	0x3c7c47c0	0.015397966
59	0x3caa75f3	0.020808196
60	0x3ca82ab2	0.020528171
61	0x3cebd22e	0.028786745
62	0x3ceb602a	0.028732378
63	0x3cae5808	0.021282211

bn3.running_mean f4 [64]
0	0xbf0f3fba	-0.55956614
1	0x3edd770a	0.43254882
2	0x3f34e66a	0.70664084
3	0x3e2d79de	0.1694102
4	0x3eb43df1	0.35203508
5	0x3e81b082	0.25329977
6	0x3f1f3659	0.621923
7	0xbf2b2573	-0.6685402
8	0x3eca0e75	0.39464155
9	0xbe7e3995	-0.24826653
10	0xbee3cfb0	-0.4449439
11	0xbeb70124	-0.35743058
12	0xbf307837	-0.68933433
13	0xbf6be831	-0.9215117
14	0x3e395bab	0.18101375
15	0x3dc951bc	0.09830043
16	0xbe1e08c6	-0.15433034
17	0xbdcfdf8d	-0.10150061
18	0xbec557e0	-0.38543606
19	0xbba2933d	-0.0049614
20	0x3e178c03	0.14799504
21	0x3ec2c8ce	0.38043827
22	0x3df913b1	0.12161959
23	0x3d5f5815	0.05452736
24	0x3d28643d	0.04111122
25	0x3f2da78b	0.67833775
26	0xbee6bfd4	-0.45068228
27	0x3db04cc2	0.086083904
28	0x3e4d502a	0.20050111
29	0x3ebc69d5	0.36799493
30	0x3ec1a390	0.378201
31	0x3f0c5ad7	0.5482611
32	0xbe5b78ec	-0.21432847
33	0x3ea7aaf0	0.32747602
34	0x3f4983fd	0.78717023
35	0xbf4275c4	-0.75960946
36	0x3eabd460	0.33560467
37	0x3e4a2927	0.19742261
38	0x3ec16dfe	0.3777923
39	0x3e47b441	0.19502355
40	0xbefafd9d	-0.49021617
41	0xbf1da882	-0.6158525
42	0x3eb9dc44	0.36300862
43	0x3e9d1298	0.30678248
44	0x3e17b817	0.14816318
45	0xbf13658d	-0.5757683
46	0x3e8f626a	0.2800477
47	0xbdb8dd8b	-0.09026631
48	0xbf5ac7da	-0.854612
49	0xbe96ca8d	-0.2945141
50	0xbd07cc6f	-0.033153947
51	0xbe837ccd	-0.25681153
52	0x3e884d40	0.26621437
53	0xbed4f793	-0.41595134
54	0xbd2b3205	-0.04179575
55	0x3e69bdca	0.22826305
56	0xbefa4bf6	-0.4888608
57	0xbeab4c47	-0.33456632
58	0x3f42ded5	0.76121265
59	0xbec2e01c	-0.38061607
60	0x3e2cb37d	0.16865344
61	0xbe455d70	-0.19273925
62	0xbc330df2	-0.010928618
63	0xbf08dffb	-0.5346677

bn3.running_var f4 [64]
0	0x3efc3c14	0.49264586
1	0x3f2cf7c5	0.67565566
2	0x3f254e11	0.64572245
3	0x3f544e81	0.8293229
4	0x3f4885b5	0.7832902
5	0x3f02fc57	0.5116629
6	0x3f26a57e	0.6509627
7	0x3f12a7bd	0.572872
8	0x3ea19f63	0.31566915
9	0x3e9a0a5a	0.30086023
10	0x3ecaf07f	0.3963661
11	0x3f0873cf	0.5330171
12	0x3f6519a5	0.89492255
13	0x3f8b54ae	1.0885217
14	0x3ee64462	0.44974047
15	0x3f6a3cea	0.914992
16	0x3f26ce93	0.6515896
17	0x3e800ffb	0.25012192
18	0x3f39ec07	0.72625774
19	0x3ed854b8	0.42252135
20	0x3eee257c	0.46512973
21	0x3ed75aad	0.42061368
22	0x3ef6e7da	0.48223764
23	0x3ef2a595	0.47391954
24	0x3ea33120	0.31873417
25	0x3ed0fec0	0.4081936
26	0x3f74c7a3	0.9561712
27	0x3e9f4bf9	0.3111265
28	0x3e587d8e	0.21141645
29	0x3fb6d415	1.4283472
30	0x3fabfd6d	1.3436714
31	0x3efa629d	0.4890336
32	0x3f11578d	0.56774217
33	0x3ea3df6b	0.32006392
34	0x3f46fe70	0.7773199
35	0x3f114dd5	0.5675939
36	0x3f0f0453	0.55865973
37	0x3f7a7e7c	0.9784925
38	0x3e90c65f	0.28276345
39	0x3e906a64	0.2820617
40	0x3ee5ace5	0.4485847
41	0x3f59df62	0.8510648
42	0x3eae881d	0.3408822
43	0x3eb1ad00	0.347023
44	0x3e9922bc	0.29909313
45	0x3ebd4141	0.36963847
46	0x3e8d6f25	0.2762386
47	0x3eb32c38	0.34994674
48	0x3f0f3808	0.5594487
49	0x3f162541	0.58650595
50	0x3f3c8df8	0.7365413
51	0x3f1eb429	0.6199365
52	0x3f4f98c2	0.81092465
53	0x3f2dde08	0.6791692
54	0x3ef49e80	0.47777176
55	0x3ee1e2c9	0.44118336
56	0x3eebb9f6	0.46040314
57	0x3f1fa709	0.6236425
58	0x3f840549	1.0314113
59	0x3f1b7008	0.6071782
60	0x3f51c3e5	0.81939536
61	0x3ef60148	0.48047853
62	0x3f99ffe6	1.2031219
63	0x3f992379	1.196395

fc_mu.weight f4 [2, 3136]
0	0xbc4f56de	-0.012654988
1	0xbc14702f	-0.00905995
2	0x3c52a450	0.012856558
3	0xbcb238e6	-0.021755647
4	0x3b67ac5c	0.0035350537
5	0x3ac299ae	0.0014846826
6	0xbc8bff83	-0.01708961
7	0xbc23dfb0	-0.010002062
8	0xbca3d7a4	-0.020000286
9	0xbcde7a94	-0.02715806
10	0xbbdb7e0d	-0.006698376
11	0x3b12455b	0.002231917
12	0xbc00efe7	-0.007869697
13	0xbc5be2a9	-0.013420739
14	0xbb29e9f0	-0.002592679
15	0xbca2db8c	-0.019880079
16	0x3bffd668	0.0078075416
17	0xbcb708a4	-0.022342987
18	0xbca2928f	-0.019845275
19	0xbc1baedb	-0.009502138
20	0xbc89ce34	-0.016821958
21	0xbaf69bfa	-0.0018814795
22	0x3c509e88	0.012733109
23	0x3c3bc8a7	0.011461413
24	0xbcee6b20	-0.029103816
25	0x3b2711be	0.0025492753
26	0xbc36b282	-0.011150958
27	0xbcb89d83	-0.022536045
28	0x3ba185d0	0.004929282
29	0x3c565178	0.013080947
30	0xbc34ee20	-0.011043102
31	0x3c592a29	0.013254681
32	0xbc61dc7f	-0.0137854805
33	0xbc681ab2	-0.014166521
34	0xbcf2856f	-0.029604642
35	0xbc4093a9	-0.011753955
36	0xbc837049	-0.016044753
37	0xbaf452eb	-0.0018640434
38	0xbc94d9d6	-0.018170279
39	0xbc99b404	-0.018762596
40	0x3a0aed34	0.0005299628
41	0xbc1efc28	-0.009703673
42	0xbca58236	-0.020203691
43	0xbcb67534	-0.022272684
44	0x3b8fa0d3	0.0043831854
45	0xbc9f6a4c	-0.019459866
46	0xbc71b5f5	-0.014752855
47	0xbc7aef1a	-0.015315795
48	0xbc0a48f9	-0.00844025
49	0x3b5f6692	0.0034088236
50	0xbce2db04	-0.027692325
51	0xbaf89bc3	-0.0018967319
52	0x3a873f62	0.0010318572
53	0x3c11cdd8	0.008899175
54	0xbc405aba	-0.011740381
55	0x3c78ce9e	0.01518598
56	0x3c7e2956	0.015512785
57	0xbcdbc2d4	-0.0268263
58	0x3b8b072d	0.004242799
59	0xbc8db542	-0.017298345
60	0xbad9b063	-0.0016608353
61	0xbb26c1d3	-0.0025445118
62	0x394e5680	0.00019677915
63	0xbcce9b95	-0.025220672
64	0xbc994905	-0.018711576
65	0xb9733d2a	-0.00023197071
66	0xb9f0ad4d	-0.00045905486
67	0x3c141fd1	0.009040789
68	0x3c3b0ecd	0.011417103
69	0x3c3c3cd6	0.011489114
70	0xbcd84a06	-0.026402485
71	0xbc0f2fa6	-0.008739388
72	0xbcab700a	-0.020927448
73	0xbc5be0a1	-0.013420255
74	0xbc91ea41	-0.017811896
75	0xbb8520bd	-0.0040627406
76	0x3c682182	0.014168145
77	0x3c19f6a5	0.009397184
78	0xbc37ed77	-0.01122605
79	0xbcce2758	-0.025165245
80	0xbc6c4936	-0.014421752
81	0x3c9b095b	0.01892536
82	0x3b47d835	0.003049386
83	0x3acc58b0	0.0015590396
84	0x3a40dee8	0.00073574344
85	0xbbd4ff9e	-0.0065001985
86	0x3abd570d	0.0014445499
87	0xbc8e2905	-0.017353544
88	0xbcc50acb	-0.024052998
89	0x3c8efc9e	0.017454442
90	0x3c089a84	0.008337621
91	0xbcaf137b	-0.021371594
92	0x3c05415c	0.008133259
93	0x3cda7d7f	0.02667117
94	0xbbe35a48	-0.0069382526
95	0xbc8d354e	-0.017237332
96	0xbc4d8405	-0.012543683
97	0x3c8dc50f	0.017305879
98	0xbb7b4e62	-0.003834628
99	0xbcb29315	-0.02179865
100	0xbcf3dacc	-0.029767416
101	0xbbe4732a	-0.0069717364
102	0x3cf244c9	0.029573815
103	0x3b2c2a55	0.002627035
104	0x3b305428	0.002690563
105	0xbcb48073	-0.022033906
106	0xb98e9ff8	-0.00027203537
107	0x3aa8f017	0.0012888935
108	0xbb7f3e5d	-0.0038947084
109	0x3c02339d	0.007946876
110	0xbb6d466f	-0.0036205312
111	0xbc08e3fe	-0.008355139
112	0xbc476c3d	-0.012171802
113	0xbc879b25	-0.01655347
114	0xbb2076b3	-0.0024484813
115	0x3b909736	0.004412557
116	0xbc8c719f	-0.017144023
117	0xbccba8e8	-0.024860814
118	0x3c1da738	0.009622388
119	0xbc09c0b3	-0.0084077595
120	0xbc9d9c0d	-0.01923945
121	0xbb81d23b	-0.003961829
122	0xbc5633f9	-0.013073915
123	0xbb99459f	-0.004677489
124	0xbcc6ffda	-0.024291921
125	0x3c3052ea	0.010761956
126	0xbca1b3b2	-0.019739006
127	0x3c848579	0.016176926
128	0xbc7f7c8e	-0.015593661
129	0xbcc0f7cd	-0.02355566
130	0xbcdd6700	-0.027026653
131	0x3c82f14f	0.015984206
132	0xbbd7d012	-0.006586083
133	0xbb6c18ba	-0.003602548
134	0x3b6bfb4a	0.0036007934
135	0xbc5a1031	-0.013309524
136	0xbcf62cbb	-0.030050626
137	0xbcbd541d	-0.023111397
138	0xbb270b22	-0.0025488813
139	0x3bb48a84	0.0055096764
140	0x3ba7d65e	0.00512199
141	0x3ccfa105	0.025345335
142	0xbce2f20c	-0.027703308
143	0x3b60cde7	0.0034302415
144	0xbb3423c0	-0.002748713
145	0xbbd907fc	-0.0066232663
146	0xbc6e0e48	-0.014529772
147	0x3b6009e3	0.003418558
148	0xb9cd3f01	-0.00039147589
149	0xbcce88be	-0.025211688
150	0xb9e85616	-0.00044314627
151	0x3cadb6d0	0.021205336
152	0x3c99e172	0.018784259
153	0x3cd7732f	0.026300041
154	0x3a0d3a5a	0.0005387418
155	0xbc1d93b3	-0.009617734
156	0xbc81e4c2	-0.01585615
157	0xbb82191c	-0.0039702784
158	0xbb2d928e	-0.0026485058
159	0xbc68cb0e	-0.014208568
160	0x3c3626cb	0.011117647
161	0xbbdd4867	-0.006753016
162	0xbc2118b1	-0.009832547
163	0xbc57e712	-0.01317765
164	0xbae9e0dd	-0.0017843504
165	0xbce132e1	-0.027490081
166	0x3c20135e	0.0097702425
167	0x3af2eb81	0.001853332
168	0x3c0e7367	0.008694506
169	0xbac8ded6	-0.0015325199
170	0x3a700583	0.0009156095
171	0xbc8a5c3d	-0.016889686
172	0xbc3e2e3b	-0.011607702
173	0xbbe9e4d8	-0.007137876
174	0x3c56e58e	0.013116254
175	0x3cc6f0e5	0.02428479
176	0xbcda0fef	-0.026618926
177	0xbc5908c5	-0.01324672
178	0xbca2b4bf	-0.019861577
179	0xbcbede76	-0.023299437
180	0xbc4fc26b	-0.01268063
181	0xbbfc7074	-0.007703835
182	0xbbfaeda8	-0.0076577254
183	0xbbfb774a	-0.0076741325
184	0x3cc96d28	0.024588183
185	0x3a4d9079	0.00078416575
186	0x3cb43d98	0.022002026
187	0x3adfb1b9	0.0017066515
188	0x3b5a6928	0.0033326838
189	0x3c4d99e2	0.012548896
190	0xbcb8e9e2	-0.022572462
191	0xbce19378	-0.027536139
192	0xbc0ab3da	-0.0084657315
193	0xbc82c756	-0.015964191
194	0xbc216945	-0.009851758
195	0xbb336a30	-0.0027376525
196	0xbb4fa97b	-0.0031686712
197	0xbcb9c43b	-0.022676578
198	0x3b641ed1	0.0034808407
199	0xbc3707e7	-0.011171318
200	0xbcadf50c	-0.021235012
201	0x3c14a7a2	0.00907317
202	0xbc331a98	-0.010931633
203	0x3c38581c	0.011251476
204	0xbb3ce9c5	-0.002882586
205	0xbca0c882	-0.01962686
206	0xbcc8ea2e	-0.024525728
207	0xbcad4edd	-0.021155769
208	0xbce285d4	-0.027651705
209	0x3aa18f1d	0.0012325976
210	0xbcacb4fe	-0.021082398
211	0xbc15c447	-0.009141034
212	0xbac8a8f5	-0.0015309142
213	0x3b6164f2	0.0034392443
214	0xbc5faf6d	-0.013652665
215	0xbcef66c3	-0.029223805
216	0x3c4ed99c	0.012625124
217	0x3b00ada8	0.0019634757
218	0xbb514ed2	-0.003193785
219	0x3ba6188a	0.0050688433
220	0xbc94decb	-0.018172642
221	0xbc293bf0	-0.010329232
222	0xbbe82503	-0.0070844903
223	0x3c179b88	0.00925339
224	0xbce26b2c	-0.027638994
225	0x3c22c192	0.009933846
226	0xbb86258c	-0.0040938314
227	0xbc02c9dd	-0.007982698
228	0xbce644d0	-0.028108984
229	0x3b950834	0.004548097
230	0x3c6e7ca2	0.014556082
231	0xbba1b2ee	-0.00493466
232	0xbc94d672	-0.018168662
233	0xbc7615ca	-0.015019843
234	0xbcf3e73c	-0.029773347
235	0x3b93739a	0.0044998648
236	0xbc98bcab	-0.018644651
237	0xbc445b05	-0.011984591
238	0x3c15388a	0.009107718
239	0x3c92b290	0.01790741
240	0x3ba5c3e9	0.0050587547
241	0xbce4b369	-0.02791758
242	0xbce51eb1	-0.027968736
243	0xbc367550	-0.011136368
244	0x3ba41af8	0.0050080977
245	0xbbd77d11	-0.0065761884
246	0xbc36e6f9	-0.011163467
247	0xbcd5755c	-0.026056938
248	0xbbb5bc46	-0.0055461256
249	0xbc24c79c	-0.010057356
250	0xbc5d37e7	-0.013502098
251	0x3b180b10	0.0023199953
252	0x3b8a1ef7	0.004215117
253	0xbc9d216a	-0.019180972
254	0xbb37bd18	-0.0028036293
255	0xbc644aa6	-0.013933813

fc_mu.bias f4 [2]
0	0xbcb84d22	-0.022497717
1	0xbb0f8f6d	-0.0021905557
